Task1/models/cnn.pth (torch, 285568 bytes, 10 tensors)

conv1.weight f4 [6, 1, 3, 3]
0.40795586 0.15500842 0.6811832 -0.0050980076 0.6975743 0.6364014 0.23616096 0.23597899
-0.09912197 -0.27074003 0.11898314 -0.3728694 0.74125296 0.9220769 0.22928831 0.6657107
0.12881339 0.48470873 0.36205623 0.18490586 -0.19228283 0.5020388 -0.010361986 -0.49207127
0.28875813 0.13117649 -0.3104622 0.43676758 -0.44838917 -0.40252572 -0.051882375 0.28174365
0.07055866 0.5722295 0.49497697 0.75035644 0.31728736 0.2840403 -0.39208496 0.26117757
0.26294088 -0.34826568 0.13314357 0.26046312 -0.28883702 0.598803 0.35157633 0.42450818
0.6565017 0.11678382 0.034204915 0.688198 0.2307496 -0.43363234
00000000: 97df d03e 87ba 1e3e 0662 2e3f 300d a7bb
00000010: 3b94 323f 34eb 223f 2ed4 713e 7aa4 713e
00000020: 7600 cbbd 709e 8abe 6fad f33d bde8 bebe
00000030: c1c2 3d3f 3b0d 6c3f 8eca 6a3e 046c 2a3f
00000040: a8e7 033e be2b f83e 6f5f b93e f657 3d3e
00000050: cae5 44be 9d85 003f 52c5 29bc c4f0 fbbe
00000060: 1bd8 933e 2153 063e e7f4 9ebe 00a0 df3e
00000070: 4493 e5be da17 cebe 9d82 54bd b440 903e
00000080: 0f81 903d a27d 123f 9f6d fd3e 5c17 403f
00000090: 7d73 a23e bb6d 913e 5cbf c8be 11b9 853e
000000a0: 30a0 863e e14f b2be ca56 083e 6c5b 853e
000000b0: 72e2 93be 274b 193f d001 b43e 2359 d93e
000000c0: 7f10 283f 5b2c ef3d 741a 0c3d be2d 303f
000000d0: a049 6c3e 0f05 debe

conv1.bias f4 [6]
0.2579687 0.30795962 0.1792208 0.34409043 -0.18034296 0.21117875
00000000: 7914 843e e2ac 9d3e a885 373e 9f2c b03e
00000010: d3ab 38be 3e3f 583e

conv2.weight f4 [10, 6, 3, 3]
0.20454492 0.21945368 0.19754876 -0.18659136 -0.11443904 -0.31083822 -0.22955924 -0.17352188
0.15616137 0.21878253 0.35221958 0.23751883 -0.16297974 -0.37838244 -0.49699572 -0.032764424
-0.021953626 0.2762645 0.05396067 -0.061612375 0.12185591 -0.085634395 -0.14407153 -0.2134982
-0.10890504 -0.07110416 0.05575472 0.10101039 0.20718452 -0.13508864 -0.26325753 -0.35470906
-0.08645354 -0.07234039 0.33414033 0.16909443 -0.05339584 0.06802552 -0.015259004 -0.062899485
-0.098201565 -0.044073787 -0.091754794 -0.22358823 -0.19349036 0.018032566 0.26417747 0.34407982
-0.19879697 -0.03489943 -0.39544216 -0.11340313 -0.23348041 0.05363973 0.2280448 0.12474085
-0.17728706 0.069694445 -0.14382726 0.13349308 -0.05019023 -0.10423048 0.050711405 0.10823175
-0.07033514 -0.15135929 -0.07363135 -0.08884803 -0.10914218 -0.22474909 -0.0012373329 -0.07225521
0.14924128 0.15999071 -0.073515736 0.011658054 0.03565285 0.016338835 -0.06260618 -0.17480905
-0.003111453 -0.066737235 -0.10267886 -0.043187406 -0.16550358 -0.08760942 0.025702337 -0.18360625
-0.06766705 0.10844688 -0.05073419 -0.04155789 -0.10198498 0.026403122 -0.010431609 -0.13575488
-0.024089437 0.07807267 0.07933154 0.3017364 0.017914563 -0.007736242 0.2168596 0.023456657
-0.10508627 -0.08233392 -0.02254914 -0.06308843 -0.24604638 -0.20451172 -0.28772828 0.041655395
-0.00676785 0.007197581 0.14797215 0.18700454 0.215751 -0.20712526 0.0128108105 -0.12705947
0.21921949 0.34230492 0.35531902 0.033812143 0.014435683 0.045683056 0.040455498 -0.05918475
-0.015867274 -0.11096645 -0.053633157 -0.2435078 -0.05099815 -0.13675226 -0.044365894 0.0009880521
-0.06403713 -0.05965283 0.22835754 0.40348098 0.4509278 0.08776607 0.03261063 -0.0056813485
-0.10628585 -0.13256198 -0.01371069 -0.0054838634 -0.057547078 -0.17555673 0.08766577 -0.028130898
-0.065598294 -0.18419248 -0.16391015 -0.27950674 -0.05979745 -0.13972813 -0.011917638 0.120550916
0.006637882 -0.031235173 -0.113474086 -0.15910378 0.09699774 0.061495315 -0.11994749 -0.12871237
0.09717888 0.10134739 -0.067545705 -0.03547888 -0.07251176 -0.15660237 0.1869576 -0.09225912
0.04605357 0.07205886 0.18213314 -0.016019236 0.102013044 0.024525195 -0.076701656 0.10804152
-0.035290275 -0.012454933 0.045371823 0.009323507 -0.08318022 0.01824899 -0.09640171 -0.11716731
0.13882025 -0.0066688517 -0.1549307 -0.049437378 0.1142118 0.044527486 -0.0937647 -0.105520815
0.101808205 -0.031519227 -0.05270155 -0.016036848 0.105226554 0.024917614 -0.0074559003 -0.075543605
-0.055205252 -0.057118475 0.12472821 0.11422621 -0.1008797 -0.058347374 0.07260669 -0.024750762
0.110098734 0.15424149 -0.0047575706 0.16664524 0.11939547 -0.3046408 0.1540911 -0.08109783
-0.10921279 -0.07443491 0.040674206 -0.07113647 0.100167386 0.14182761 -0.26123148 0.030340841
0.08966469 -0.070795916 -0.22734922 0.1693548 0.1899521 -0.03640668 0.27194685 0.07243706
-0.04470867 0.24234632 -0.083706446 0.016435822 -0.003208186 -0.12443506 -0.1967522 -0.10854824
-0.08032133 -0.10257395 0.073521145 -0.08004754 -0.20225714 0.12274535 0.18364365 -0.08117124
00000000: 3974 513e 77b8 603e 394a 4a3e ce11 3fbe
00000010: 045f eabd 3026 9fbe 9411 6bbe b8af 31be
00000020: c4e8 1f3e 8708 603e 2056 b43e 2338 733e
00000030: 29e4 26be 58bb c1be 3976 febe fd33 06bd
00000040: 17d8 b3bc 8a72 8d3e dd05 5d3d 425d 7cbd
00000050: 978f f93d 1661 afbd 7d87 13be 469f 5abe
00000060: 9b09 dfbd 0f9f 91bd 105f 643d 89de ce3d
00000070: 2e28 543e ad54 0abe b1c9 86be 6d9c b5be
00000080: 8e0e b1bd 3327 94bd 7114 ab3e 1727 2d3e
00000090: 99b5 5abd f750 8b3d e700 7abc 72d1 80bd
000000a0: e71d c9bd b786 34bd f0e9 bbbd 50f4 64be
000000b0: 5622 46be 08b9 933c 4542 873e 3b2b b03e
000000c0: 6f91 4bbe b4f2 0ebd 6577 cabe e63f e8bd
000000d0: 7d15 6fbe 55b5 5b3d 9384 693e 2178 ff3d
000000e0: bd8a 35be f6bb 8e3d 7447 13be 69b2 083e
000000f0: 4594 4dbd ca76 d5bd c3b6 4f3d 9ca8 dd3d
00000100: df0b 90bd eefd 1abe 09cc 96bd f5f5 b5bd
00000110: ef85 dfbd a024 66be 012e a2ba 8afa 93bd
00000120: b5d2 183e 9bd4 233e 6b8f 96bd 6c01 3f3c
00000130: b908 123d 05d9 853c ab37 80bd 2501 33be
00000140: 85e9 4bbb 88ad 88bd 4b49 d2bd 47e5 30bd
00000150: c579 29be 916c b3bd b58d d23c 4703 3cbe
00000160: 0695 8abd 6619 de3d a7ce 4fbd 9b38 2abd
00000170: 80dd d0bd 5c4b d83c 57e9 2abc 5403 0bbe
00000180: 3657 c5bc 90e4 9f3d 9378 a23d 327d 9a3e
00000190: 90c1 923c 4d80 fdbb 7110 5e3e 2d28 c03c
000001a0: 7837 d7bd b09e a8bd f9b8 b8bc 8234 81bd
000001b0: 95f3 7bbe 856b 51be 1f51 93be d99e 2a3d
000001c0: d7c4 ddbb b0d9 eb3b 0386 173e 1e7e 3f3e
000001d0: d5ed 5c3e a518 54be 6fe4 513c e11b 02be
000001e0: 137b 603e 9742 af3e 60ec b53e 9a7e 0a3d
000001f0: a583 6c3c 281e 3b3d aab4 253d b56b 72bd
00000200: 16fc 81bc 6142 e3bd 71ae 5bbd 1c5a 79be
00000210: 70e3 50bd c908 0cbe 03b9 35bd 8781 813a
00000220: e625 83bd 8756 74bd 8fd6 693e 0f95 ce3e
00000230: 02e0 e63e b3be b33d b992 053d 9b2a babb
00000240: 65ac d9bd 54be 07be cda2 60bc fbb1 b3bb
00000250: 7cb6 6bbd 25c5 33be 1c8a b33d c572 e6bc
00000260: 6658 86bd f49c 3cbe 10d8 27be 821b 8fbe
00000270: 2cee 74bd e414 0fbe 3242 43bc 66e3 f63d
00000280: 9782 d93b e8e0 ffbc 1a65 e8bd 1aec 22be
00000290: c0a6 c63d 83e2 7b3d 08a7 f5bd 2dcd 03be
000002a0: b805 c73d 388f cf3d 6755 8abd 4d52 11bd
000002b0: 0c81 94bd 5f5c 20be d071 3f3e 59f2 bcbd
000002c0: aba2 3c3d 9893 933d 1c81 3a3e c63a 83bc
000002d0: 37ec d03d 10e9 c83c c215 9dbd df44 dd3d
000002e0: 898c 10bd c60f 4cbc ced7 393d 9fc1 183c
000002f0: 645a aabd e87e 953c 426e c5bd 6af5 efbd
00000300: e526 0e3e 6286 dabb 27a6 1ebe d97e 4abd
00000310: e0e7 e93d 7462 363d b507 c0bd 4c1b d8bd
00000320: d280 d03d 4e1a 01bd 95dd 57bd b55f 83bc
00000330: 0581 d73d 0620 cc3c a050 f4bb 9bb6 9abd
00000340: e71e 62bd 10f5 69bd 8171 ff3d 6eef e93d
00000350: 049a cebd a8fd 6ebd d1b2 943d 1cc2 cabc
00000360: 727b e13d 7bf1 1d3e 65e5 9bbb 0da5 2a3e
00000370: 9d85 f43d e1f9 9bbe 0fca 1d3e 9e16 a6bd
00000380: f5aa dfbd 5571 98bd ff99 263d ffaf 91bd
00000390: 8f24 cd3d 423b 113e 22c0 85be 5b8d f83c
000003a0: 1fa2 b73d 73fd 90bd 3cce 68be 586b 2d3e
000003b0: ce82 423e 2c1f 15bd 9e3c 8b3e e259 943d
000003c0: 7020 37bd a229 783e 496e abbd 6ba4 863c
000003d0: 6e40 52bb cfd7 febd 6979 49be 8a4e debd
000003e0: 827f a4bd 4b12 d2bd 4192 963d f7ef a3bd
000003f0: 7f1c 4fbe ea61 fb3d 150d 3c3e 1b3d a6bd

conv2.bias f4 [10]
0.10991551 0.01064944 -0.090839125 0.08192676 -0.09084764 -0.15146288 -0.04434108 -0.120879464
0.00038714023 -0.06348596
00000000: 621b e13d fd7a 2e3c dd09 babd 38c9 a73d
00000010: 540e babd 1619 1bbe fe9e 35bd a78f f7bd
00000020: 15f9 ca39 ed04 82bd

linear1.weight f4 [120, 490]
-0.043675266 0.025000598 0.038227286 -0.024270566 0.019693693 0.03708564 0.0089884065 0.040136233
-0.043313347 -0.062288947 -0.079307765 0.027061988 0.011490891 0.03136432 0.01658075 -0.009695027
-0.0733294 -0.024582565 0.021710103 0.0024015235 0.004266834 0.013945847 0.016014231 0.0386596
-0.055535812 -0.045631483 0.0051475754 0.026307477 0.021792786 0.039688297 -0.012204545 -0.008529589
0.043488156 0.08279615 -0.039415564 0.03664939 -0.010872199 -0.040440954 -0.025108943 -0.047177218
0.04358064 -0.009745099 0.02372417 -0.03815015 0.02602995 0.020087939 -0.0006490863 0.035438202
0.035085466 -0.02328004 0.028271206 0.034360837 0.02582233 -0.029861474 0.04113995 -0.015043345
0.014531232 -0.0050959107 -0.045479912 -0.028262766 -0.022998415 -0.007416859 0.0065722377 0.023172226
-0.015383147 -0.0043934328 -0.029196966 0.030244568 -0.0052042017 -0.0033792083 -0.015149174 0.014858923
0.024341496 -0.009012935 0.0026469743 0.013893774 0.02461119 0.019552307 -0.017675022 -0.034604765
-0.03609588 0.010015421 -0.010554061 -0.039028585 -0.04136579 0.043679174 -0.0016799502 -0.037969068
-0.023689047 -0.045150567 -0.01059105 0.026669633 0.029346185 -0.017982172 0.024018744 0.0041777114
0.006884245 0.03181605 0.043990076 -0.05066216 -0.023667844 -0.060759038 -0.024199273 -0.009758574
0.03678923 0.004079715 -0.0073759244 -0.042671446 -0.08937779 -0.014260953 -0.018528359 -0.0029846288
0.023572324 -0.05890098 -0.0046308874 -0.034917854 -0.0642786 0.010583004 -0.017366862 -0.038348615
0.036911838 0.0922298 0.053016853 0.073673785 -0.010286325 0.0041668536 0.024699602 0.0499299
-0.021534218 0.053158753 -0.004428584 -0.020985145 -0.030003734 -0.04440322 -0.033564303 -0.10543091
-0.028175933 0.0013021376 -0.032931585 -0.040886924 0.014731775 0.023679325 -0.022922799 -0.048441797
-0.013531213 -0.016167019 -0.0038332993 0.03998284 0.038776867 0.034485135 0.013523406 -0.027075995
-0.006784606 0.03219442 -0.025968667 0.04382014 0.04454951 -0.0053980723 -0.025535524 -0.04268696
0.044073153 -0.01112613 -0.043872762 0.0033524162 0.005343757 -0.038937166 -0.04757919 -0.005995758
0.023231221 -0.026930276 -0.011521807 -0.013932982 -0.06705065 0.005688394 -0.029617704 0.03348348
-0.032549262 -0.06385221 -0.026351113 0.013888141 0.04858663 0.046538282 -0.025087472 -0.04212815
-0.040867146 -0.013334099 0.0069456417 0.05231496 0.036809366 0.030369727 -0.036547348 -0.029895581
-0.01529208 -0.029892972 -0.0016274542 -0.00054251554 0.028982898 -0.030607564 0.010144757 -0.03555493
-0.0022318405 -0.0145082185 0.0017908592 0.043424707 0.049262155 0.053625274 0.15320894 0.05421064
0.06766423 0.084754914 0.014509971 -0.04966968 0.012090927 0.01486308 0.042398937 0.027809808
0.067517355 -0.032561217 -0.046464887 -0.09215758 -0.04817128 -0.004084889 -0.027522165 0.03569229
0.008597936 -0.008355408 -0.007714889 -0.018044004 0.02757383 -0.028265284 0.004637449 0.035614666
0.046673954 0.07760491 -0.06402319 -0.0027474707 0.007403484 0.028559411 -0.0020932027 -0.042653084
-0.008858567 -0.017106188 0.036836993 -0.027106943 -0.018606283 -0.039841752 -0.014556515 0.029249813
-0.0045725247 -0.0076403534 0.019189 0.0343534 0.027598897 0.057260912 0.05363675 0.05786724
00000000: d6e4 32bd 0ece cc3c 3794 1c3d 11d3 c6bc
00000010: ab54 a13c 1de7 173d 1c44 133c e465 243d
00000020: 5669 31bd b222 7fbd 1c6c a2bd 1ab1 dd3c
00000030: 4a44 3c3c e077 003d 5ad4 873c e4d7 1ebc
00000040: b92d 96bd 6061 c9bc 63d9 b13c e162 1d3b
00000050: ccd0 8b3b 1f7d 643c 4730 833c 8759 1e3d
00000060: 8579 63bd 14e8 3abd feac a83b c782 d73c
00000070: c986 b23c 3290 223d 92f5 47bc b0bf 0bbc
00000080: a320 323d 0791 a93d 3772 21bd ac1d 163d
00000090: 4f21 32bc 6aa5 25bd 45b1 cdbc e63c 41bd
000000a0: 9d81 323d e8a9 1fbc 3159 c23c 5543 1cbd
000000b0: c33c d53c 768f a43c 7227 2aba a627 113d
000000c0: c7b5 0f3d c8b5 bebc 0499 e73c f3bd 0c3d
000000d0: 5a89 d33c 0da0 f4bc 5d82 283d 5d78 76bc
000000e0: 6814 6e3c 99fb a6bb 2549 3abd 5187 e7bc
000000f0: 2c67 bcbc 1f09 f3bb ed5b d73b aed3 bd3c
00000100: 9809 7cbc c9f6 8fbb 7a2e efbc 75c3 f73c
00000110: 0288 aabb b575 5dbb 3e34 78bc d772 733c
00000120: d167 c73c fdaa 13bc dc78 2d3b b6a2 633c
00000130: 689d c93c 292c a03c 35cb 90bc babd 0dbd
00000140: 46d9 13bd b817 243c f1ea 2cbc 70dc 1fbd
00000150: 2d6f 29bd efe8 323d c631 dcba 7485 1bbd
00000160: 880f c2bc cdef 38bd 1586 2dbc 467a da3c
00000170: 6967 f03c 594f 93bc f5c2 c43c 2fe5 883b
00000180: 3c95 e13b 8c51 023d f02e 343d 2083 4fbd
00000190: 11e3 c1bc 78de 78bd 8e3d c6bc 6de2 1fbc
000001a0: 4eb0 163d 21af 853b bdb1 f1bb 41c8 2ebd
000001b0: b40b b7bd c6a6 69bc c9c8 97bc c399 43bb
000001c0: bf1a c13c 2742 71bd b3be 97bb 0606 0fbd
000001d0: 80a4 83bd 5664 2d3c f344 8ebc 7013 1dbd
000001e0: de30 173d fae2 bc3d 3328 593d 48e2 963d
000001f0: f987 28bc 1a8a 883b d256 ca3c 4b83 4c3d
00000200: 8768 b0bc febc 593d a81d 91bb 0ae9 abbc
00000210: 64ca f5bc 27e0 35bd b97a 09bd 29ec d7bd
00000220: 37d1 e6bc 7dac aa3a 45e3 06bd 0c79 27bd
00000230: 8b5d 713c 25fb c13c 98c8 bbbc e86a 46bd
00000240: 05b2 5dbc b270 84bc 1738 7bbb 0cc5 233d
00000250: 7ed4 1e3d 4940 0d3d 4791 5d3c 7ace ddbc
00000260: 6651 debb 4cde 033d 3ebc d4bc bf7c 333d
00000270: 8c79 363d 50e2 b0bb e02f d1bc 86d8 2ebd
00000280: 0d86 343d 5f4a 36bc edb3 33bd 36b4 5b3b
00000290: af1a af3b 947c 1fbd 66e2 42bd 1078 c4bb
000002a0: 674f be3c e29c dcbc f6c5 3cbc 2a47 64bc
000002b0: da51 89bd b565 ba3b d4a0 f2bc f925 093d
000002c0: 6052 05bd f3c4 82bd 4ade d7bc 168b 633c
000002d0: c602 473d ed9e 3e3d 3e84 cdbc 918e 2cbd
000002e0: 4f64 27bd 4477 5abc 4498 e33b 3648 563d
000002f0: 6bc5 163d efc9 f83c acb2 15bd 94e7 f4bc
00000300: a28b 7abc 1be2 f4bc 4d50 d5ba 9a37 0eba
00000310: 8b6d ed3c b7bc fabc 3236 263c 0ca2 11bd
00000320: 1244 12bb e1b3 6dbc 43bb ea3a 1bde 313d
00000330: 1dc7 493d 2da6 5b3d cee2 1c3e fa0b 5e3d
00000340: 8b93 8a3d fc93 ad3d 3bbb 6d3c 6f72 4bbd
00000350: 0619 463c 4784 733c 82aa 2d3d 65d1 e33c
00000360: 8a46 8a3d e95e 05bd f751 3ebd 1dbd bcbd
00000370: 404f 45bd 88da 85bb 2a76 e1bc 1432 123d
00000380: 5bde 0c3c 1fe5 08bc 2ecd fcbb 05d1 93bc
00000390: 83e2 e13c 998c e7bc bef5 973b afe0 113d
000003a0: 302d 3f3d 53ef 9e3d 971e 83bd e90e 34bb
000003b0: ed98 f23b 6df5 e93c 1d2e 09bb 00b5 2ebd
000003c0: 8623 11bc 4722 8cbc 63e2 163d 610f debc
000003d0: 346c 98bc 1b31 23bd 737e 6ebc 4e9d ef3c
000003e0: 1ed5 95bb ee5b fabb 4032 9d3c 27b6 0c3d
000003f0: 1517 e23c 6b8a 6a3d 35b2 5b3d 3306 6d3d

linear1.bias f4 [120]
0.0364402 0.002971406 -0.015963634 0.013545987 0.027135424 0.0149952015 0.022535361 -0.038750462
0.018031782 -0.035636954 0.038857132 0.012361875 0.014985346 0.031004919 -0.036780372 -0.025350474
0.008465677 0.042079035 0.011448308 -0.013223921 0.0057111937 -0.012424384 -0.012633329 -0.022422478
-0.036599025 -0.03501991 -0.032593474 0.0062175584 -0.010831595 -0.031067219 0.038988125 0.042079654
-0.0396931 0.0046402547 -0.00974731 0.031634267 0.02805145 -0.041229054 -0.024249438 -0.032241512
0.03809282 -0.015997117 0.04847 -0.03406248 -0.010616568 0.030734926 0.032606732 -0.039997257
0.024269067 -0.0011073127 -0.014041938 0.040232457 -0.032537244 0.03184751 -0.022756737 -0.02691125
0.009389083 -0.00407139 -0.005177018 -0.02038125 0.044519126 0.025524324 0.039479766 0.04618364
0.015233236 0.0013534476 -0.036742516 -0.0044412795 -0.021677097 0.008013236 -0.036442697 0.028935201
-0.015148178 -0.025815947 -0.02410724 -0.04104141 -0.013527437 -0.03957337 0.020906929 -0.010183801
0.010727912 -0.038001306 -0.018648986 0.0025841468 0.015726486 -0.0054748105 -0.03394006 -0.009582676
0.03007432 0.0027858377 -0.041096427 0.00847933 0.04750562 0.023428759 0.019033507 0.04221442
0.029069275 0.044129636 0.04700817 -0.03531278 0.022918733 -0.026691886 -0.04124869 0.043823343
0.020829061 -0.02954645 -0.009514713 0.028566977 0.013034355 -0.011210115 0.027010644 -0.007943116
-0.0015961904 0.013476254 0.0016698345 0.011087812 -0.038288664 0.015802443 0.041391212 -0.015508554
00000000: 5242 153d ecbb 423b 2bc6 82bc fdef 5d3c
00000010: 1c4b de3c 6fae 753c 149c b83c ceb8 1ebd
00000020: 63b7 933c 0ef8 11bd a828 1f3d 7689 4a3c
00000030: 1985 753c 07fe fd3c 04a7 16bd ccab cfbc
00000040: 9fb3 0a3c 115b 2c3d af91 3b3c 25a9 58bc
00000050: f724 bb3b a58f 4bbc 06fc 4ebc 58af b7bc
00000060: dce8 15bd 0a71 0fbd bc80 05bd a9bc cb3b
00000070: 0177 31bc ae80 febc 03b2 1f3d b75b 2c3d
00000080: 3b95 22bd 470d 983b 2eb3 1fbc ef92 013d
00000090: 28cc e53c ccdf 28bd c2a6 c6bc ad0f 04bd
000000a0: 3807 1c3d 630c 83bc 7b88 463d 1985 0bbd
000000b0: 1df1 2dbc d0c7 fb3c a38e 053d 2ad4 23bd
000000c0: eccf c63c 4023 91ba 2810 66bc caca 243d
000000d0: c645 05bd 8972 023d 566c babc fb74 dcbc
000000e0: abd4 193c 4b69 85bb faa3 a9bb 94f6 a6bc
000000f0: b059 363d 6318 d13c 89b5 213d 0e2b 3d3d
00000100: d394 793c 2a66 b13a 527f 16bd 2788 91bb
00000110: 2b94 b1bc f349 033c f044 15bd 8409 ed3c
00000120: 1030 78bc f77b d3bc 8c7c c5bc 0a1b 28bd
00000130: 2fa2 5dbc b017 22bd 0245 ab3c f5d9 26bc
00000140: 20c4 2f3c 42a7 1bbd c2c5 98bc ca5a 293b
00000150: d5d4 803c 0a66 b3bb bb04 0bbd a800 1dbc
00000160: 6c5e f63c 9a92 363b ba54 28bd e3ec 0a3c
00000170: 4195 423d abed bf3c 28ec 9b3c 07e9 2c3d
00000180: b022 ee3c 47c1 343d a48b 403d 22a4 10bd
00000190: 11c0 bb3c f1a8 dabc 63f4 28bd 1b80 333d
000001a0: b5a1 aa3c 660b f2bc 99e3 1bbc 4b05 ea3c
000001b0: 0c8e 553c a1aa 37bc 6d45 dd3c d823 02bc
000001c0: 4337 d1ba 82cb 5c3c 59de da3a a7a9 353c
000001d0: 93d4 1cbd 2074 813c d589 293d 9717 7ebc

linear2.weight f4 [84, 120]
-0.0374731 0.053939953 0.024349453 -0.034798108 0.00235574 0.058855332 0.0032858367 0.008128334
0.014445691 0.103236504 0.0925032 -0.01404861 -0.090509675 -0.07411824 -0.00011131413 0.06521608
0.09685668 -0.0038408705 0.010137375 -0.006163248 -0.035283085 -0.010664973 -0.008838825 -0.06768396
-0.011388139 -0.021850513 0.057956755 0.04130837 -0.0030858323 0.04683011 -0.0013090086 -0.021746453
-0.060684495 -0.08772534 -0.076797344 0.023304483 -0.021635078 0.07291972 -0.0028862313 -0.029860523
0.11179529 -0.096838295 -0.06347691 0.0075114463 0.05911702 0.075013794 -0.09036359 -0.004983004
0.051656496 -0.06507986 0.037036065 0.013114415 0.017783295 0.08496545 -0.022833476 -0.07654556
-0.0328595 0.08305315 0.020508416 0.05133745 -0.018781051 0.1061675 0.0025309843 -0.0075308834
0.08300647 0.064107955 -0.1013452 -0.07055588 -0.07531089 -0.106367886 0.0050797374 -0.091193885
0.10796813 -0.04375568 0.06838129 0.07558549 0.030831715 0.015396406 -0.05294498 -0.034478392
0.13063712 -0.04867044 -0.041159786 -0.07651534 0.040672887 0.04342732 -0.024711384 0.013067027
0.051942565 -0.048073433 -0.07921074 -0.104781926 0.06700513 0.037392728 -0.084041 -0.033006337
-0.09258049 -0.0029242144 -0.10038672 -0.07015915 -0.041767377 0.02314712 0.076222375 -0.0035355159
-0.043315277 0.04649709 -0.01092902 -0.09760781 -0.054237556 0.09075993 0.007251657 -0.047200385
-0.06709301 -0.06917047 0.0024956341 0.08281957 0.04806733 0.033954408 0.07349134 -0.07881454
0.11495949 0.026336642 -0.040218923 -0.042660423 -0.04291371 -0.019556714 -0.120226994 0.019067269
-0.09774998 -0.0109323915 0.016134126 0.005675372 0.031115811 -0.06627904 0.05415428 0.06378013
0.010518713 -0.037442885 0.045256987 0.048091765 0.060561694 0.060560152 -0.041891977 -0.0049249395
-0.110606804 0.0021069325 0.08329007 -0.11505706 -0.00735074 0.087666 0.0045929607 -0.034978203
0.065367036 -0.05166069 -0.05192036 -0.06838033 -0.0854404 0.05546931 0.042260204 -0.07093999
-0.024412442 -0.04881227 0.032529444 0.066056736 0.052481484 0.058416754 -0.027911598 0.0011997799
0.057863016 -0.03767792 0.038849056 0.05595371 -0.04330929 0.07591492 -0.039802577 -0.07377787
0.061034877 -0.037139222 0.02964937 0.012457463 0.010449175 0.069302216 -0.03105447 -0.08561123
0.08140161 -0.018924909 0.0820664 -0.017038181 0.06090713 -0.084257655 -0.06434974 0.09800026
0.015831515 0.007924672 0.06020564 0.09949806 0.04946456 0.13301939 0.10073547 -0.043396734
-0.006035301 0.012526405 -0.0023567672 -0.07444262 0.03830865 -0.07092709 -0.024477791 0.07819797
-0.10347299 0.023927385 -0.057742693 0.037836418 -0.06116027 -0.038359948 0.057536513 -0.044272415
-0.02390281 -0.06109899 0.029317996 -0.07349131 0.09217519 0.07325292 0.076090954 0.12717171
-0.034747366 -0.08884048 -0.09056455 0.12313226 -0.026819432 -0.06284449 0.07493351 -0.06703191
-0.010904483 0.023530986 0.06278979 -0.08212258 -0.02441227 -0.035210915 0.06332707 0.07343057
-0.0143651245 0.0007964187 0.07248356 0.01950059 0.0659407 0.052497238 -0.07045773 -0.07227922
-0.08171575 0.008986884 -0.076547846 0.009533255 0.021628749 0.077115595 -0.08956182 -0.049061134
00000000: 657d 19bd 24f0 5c3d 8178 c73c 7688 0ebd
00000010: c262 1a3b 4a12 713d 3157 573b b42c 053c
00000020: 9fad 6c3c a96d d33d 5172 bd3d 242c 66bc
00000030: 235d b9bd 4ecb 97bd 5271 e9b8 0290 853d
00000040: cc5c c63d 1db7 7bbb 3c17 263c 12f5 c9bb
00000050: ff84 10bd 24bc 2ebc b8d0 10bc e39d 8abd
00000060: 5195 3abc d9ff b2bc 1064 6d3d f732 293d
00000070: ad3b 4abb eed0 3f3d 0a93 abba 9e25 b2bc
00000080: 4e90 78bd 58a9 b3bd ed47 9dbd 0be9 be3c
00000090: 0c3c b1bc ef56 953d ed26 3dbb 0e9e f4bc
000000a0: eef4 e43d 2853 c6bd 2f00 82bd 9422 f63b
000000b0: b024 723d d5a0 993d 8c10 b9bd 7848 a3bb
000000c0: c395 533d 9748 85bd 21b3 173d d8dd 563c
000000d0: 46ae 913c 5e02 ae3d 450d bbbc ebc3 9cbd
000000e0: af97 06bd c517 aa3d 4401 a83c 3847 523d
000000f0: b8da 99bc 596e d93d dfde 253b a1c5 f6bb
00000100: 4cff a93d 084b 833d 128e cfbd 9a7f 90bd
00000110: 993c 9abd 68d7 d9bd ed73 a63b dcc3 babd
00000120: 651e dd3d 2839 33bd 7d0b 8c3d 91cc 9a3d
00000130: cb92 fc3c 3541 7c3c d6dc 58bd 3739 0dbd
00000140: bdc5 053e a85a 47bd 2a97 28bd 13b4 9cbd
00000150: 9d98 263d d8e0 313d 876f cabc 1517 563c
00000160: bac1 543d a6e8 44bd 3e39 a2bd e897 d6bd
00000170: fc39 893d 1e29 193d b01d acbd a731 07bd
00000180: d79a bdbd 2da4 3fbb 8d97 cdbd 9aaf 8fbd
00000190: 4514 2bbd 079f bd3c 7a1a 9c3d 1db4 67bb
000001a0: 5c6b 31bd bc73 3e3d a20f 33bc 9ae6 c7bd
000001b0: 3328 5ebd 58e0 b93d 4f9f ed3b 3155 41bd
000001c0: 0f68 89bd 3fa9 8dbd cb8d 233b 4f9d a93d
000001d0: 40e2 443d c713 0b3d a182 963d 8469 a1bd
000001e0: e26f eb3d f1bf d73c 99bc 24bd b2bc 2ebd
000001f0: 49c6 2fbd 6735 a0bc 9239 f6bd f632 9c3c
00000200: 2431 c8bd c61d 33bc b72b 843c 79f8 b93b
00000210: 96e6 fe3c 4ebd 87bd e1d0 5d3d 289f 823d
00000220: ae56 2c3c b65d 19bd 645f 393d dffb 443d
00000230: 8a0f 783d ec0d 783d ec96 2bbd 6361 a1bb
00000240: d285 e2bd 7614 0a3b fc93 aa3d 09a3 ebbd
00000250: 7ade f0bb 3b8a b33d 8c80 963b 4e45 0fbd
00000260: 27df 853d 299a 53bd 72aa 54bd fd0a 8cbd
00000270: 60fb aebd ca33 633d 0919 2d3d fc48 91bd
00000280: 9afc c7bc 60ef 47bd 983d 053d c148 873d
00000290: d3f6 563d 6846 6f3d dda6 e4bc ef41 9d3a
000002a0: c501 6d3d 2a54 1abd 3020 1f3d b82f 653d
000002b0: 1565 31bd 4879 9b3d 0708 23bd da18 97bd
000002c0: b5ff 793d 4c1f 18bd 3ce3 f23c 631a 4c3c
000002d0: 0433 2b3c 52ee 8d3d f265 febc f154 afbd
000002e0: e3b5 a63d 6908 9bbc 6e12 a83d a893 8bbc
000002f0: c179 793d 478f acbd ccc9 83bd 5cb4 c83d
00000300: 18b1 813c 7cd6 013c 309a 763d a4c5 cb3d
00000310: 5a9b 4a3d 3c36 083e 664e ce3d c6c0 31bd
00000320: c6c3 c5bb 8d3b 4d3c fe73 1abb 5f75 98bd
00000330: 88e9 1c3d 3942 91bd a685 c8bc 4226 a03d
00000340: a6e9 d3bd 5d03 c43c 9a83 6cbd 5cfa 1a3d
00000350: 3183 7abd 521f 1dbd 68ab 6b3d fe56 35bd
00000360: d3cf c3bc ef42 7abd 4b2c f03c 9d82 96bd
00000370: 59c6 bc3d a005 963d 93d5 9b3d 4d39 023e
00000380: 4153 0ebd fff1 b5bd e879 b9bd c42c fc3d
00000390: 6db4 dbbc 9db4 80bd bd76 993d 0748 89bd
000003a0: b7a8 32bc 0ec4 c03c ef97 803d e22f a8bd
000003b0: 3efc c7bc 5239 10bd 9fb1 813d c462 963d
000003c0: b35b 6bbc c1c6 503a 4372 943d b4bf 9f3c
000003d0: eb0b 873d 5807 573d 244c 90bd 2107 94bd
000003e0: 965a a7bd b93d 133c 1ec5 9cbd 5f31 1c3c
000003f0: c62e b13c c8ee 9d3d 306c b7bd 54f4 48bd

linear2.bias f4 [84]
-0.081666745 -0.10026453 -0.075312205 0.03167621 0.059850175 -0.03320021 0.028728914 -0.06118863
0.082665294 -0.014858575 -0.041139893 0.03970655 -0.0010848845 -0.0332624 0.034399316 0.014353815
0.08276128 -0.011005234 0.00023464001 -0.072289914 0.05520773 0.030058198 -0.05771914 0.0777013
-0.0074506328 0.023901379 0.06055344 -0.077609494 -0.06365928 -0.047853336 -0.004886359 0.039787546
-0.06346761 -0.06636636 -0.086734466 0.053154863 -0.05758255 0.023909718 -0.032364257 0.003722647
0.06933422 -0.05064159 0.063249536 -0.013255163 -0.079564616 -0.02170754 0.103075735 -0.0010000443
0.04376976 -0.0028378142 -0.0026735887 -0.0007154593 0.089856476 0.07541782 0.06498284 -0.029359806
0.024396442 0.06984704 0.021489939 -0.005132381 0.06823958 -0.019002328 0.06829176 -0.039502945
0.07404245 -0.0047330917 -0.05580687 0.0660275 0.014901719 0.046823245 0.021001667 -0.06696227
0.052919813 -0.0724578 -0.08099628 -0.0012026359 -0.047326148 0.0080034835 0.016012168 0.012108163
-0.068486206 0.011945394 -0.009401254 0.088753134
00000000: e540 a7bd 7d57 cdbd 493d 9abd eabe 013d
00000010: 7525 753d f2fc 07bd e658 eb3c eea0 7abd
00000020: 6c4c a93d 6171 73bc 4e82 28bd 56a3 223d
00000030: af32 8eba 283e 08bd 4ce6 0c3d 432c 6b3c
00000040: bf7e a93d 4c4f 34bc b309 7639 bc0c 94bd
00000050: 8021 623d 9c3c f63c e86a 6cbd dc21 9f3d
00000060: 7024 f4bb d3cc c33c e206 783d baf1 9ebd
00000070: cc5f 82bd dc01 44bd c01d a0bb 44f8 223d
00000080: 4efb 81bd 16eb 87bd d7a1 b1bd eab8 593d
00000090: aedb 6bbd 50de c33c 6290 04bd a7f7 733b
000000a0: 19ff 8d3d 8e6d 4fbd f988 813d 2f2c 59bc
000000b0: c6f2 a2bd 03d4 b1bc 5f19 d33d eb13 83ba
000000c0: eb47 333d 9ffa 39bb 6037 2fbb a98d 3bba
000000d0: ac06 b83d a874 9a3d b915 853d fa83 f0bc
000000e0: 0cdb c73c f70b 8f3d ab0b b03c 882d a8bb
000000f0: 31c1 8b3d c5aa 9bbc 8ddc 8b3d d7cd 21bd
00000100: 91a3 973d 0d18 9bbb bf95 64bd 6d39 873d
00000110: 5726 743c bbc9 3f3d b00b ac3c 8423 89bd
00000120: 72c2 583d c164 94bd 61e1 a5bd c4a1 9dba
00000130: 10d9 41bd 0b21 033c f32b 833c 5161 463c
00000140: 7f42 8cbd 9db6 433c b807 1abc 34c4 b53d

linear3.weight f4 [10, 84]
0.01706541 0.02689784 -0.04876124 -0.011862726 -0.073285535 0.11469511 0.1056923 -0.1659153
-0.035022736 -0.14028458 0.13014854 0.06293657 0.059160568 0.12396101 -0.032265335 -0.025539286
-0.06498864 -0.003644729 0.12944987 -0.11442181 0.06570968 -0.05095847 0.080539085 0.12639706
-0.052307863 0.038357824 -0.15626228 0.009235934 0.035710752 0.20576766 -0.36552355 0.050163727
0.12918985 0.058745522 0.24957523 0.026753467 0.028193917 -0.13507302 0.009592375 0.022763068
0.11927916 -0.2201954 0.01357852 0.26717 0.019576825 0.012344416 -0.28610396 -0.07874113
-0.2359956 -0.052197397 0.0913876 0.22497196 -0.14783645 0.061431665 0.28609687 0.082848296
-0.04082216 0.1506749 0.07394416 0.009947017 -0.15310301 0.14772342 -0.10456433 -0.13422588
0.03997398 0.20454055 0.074627094 -0.004074235 -0.19273558 0.051902495 0.056176778 0.00020764991
0.059081107 0.038203906 0.02832319 -0.016951948 -0.20018578 -0.03907201 0.03816699 -0.15679356
-0.13163182 -0.08372243 -0.047938593 -0.14434414 -0.0071909917 0.21206886 -0.034572333 0.031056186
0.018146943 0.018443618 -0.051142205 -0.12766765 -0.18503226 0.006680936 -0.09639876 0.08947876
0.066437565 -0.17373098 -0.24714996 0.06437059 -0.14983107 0.15731113 0.18591104 -0.13265188
0.013138137 -0.19804461 -0.10289871 -0.0316284 -0.08877 0.05885001 0.2562714 0.07036711
-0.10638316 -0.13884123 0.1601979 -0.015671305 1.8412888e-05 0.19500865 -0.035197593 0.21544042
-0.08234821 -0.044886123 0.053605843 0.116199575 0.07578235 -0.13525304 0.0018800851 -0.18083501
0.12828012 -0.21181236 -0.1590249 -0.20376746 0.17621316 -0.0016311012 0.10122922 0.083007716
0.110262424 0.09472672 -0.1937698 0.016068134 -0.07883726 0.041995 -0.07660615 -0.07040649
0.28900948 -0.06411421 -0.015684692 -0.15596375 0.05019315 -0.014059978 0.029583989 0.09144393
0.1259128 0.05835669 -0.021978885 0.17280391 0.010744788 -0.04588184 0.19224714 -0.23085275
0.02760471 0.08904933 -0.16043292 0.017464742 0.14678374 -0.053094126 0.11354531 0.24622345
0.013188162 -0.086193115 0.052950457 0.07710898 0.15330747 0.022176873 -0.10720377 -0.1239919
0.030146988 -0.16079599 -0.106038176 0.0798744 -0.057726648 -0.027950637 0.092663854 0.071857154
0.048243925 -0.13333298 0.1864751 0.11193395 -0.0020977566 0.10129672 0.104450464 0.07324813
-0.027517002 0.1174972 -0.12959339 0.16493134 -0.010163013 -0.14469351 -0.048243683 0.067198604
0.09292061 -0.059813682 -0.06114305 0.19006483 -0.07122694 -0.07171054 0.054704938 -0.12136415
0.02711654 -0.063856095 0.12247834 -0.0979293 -0.09679033 0.14008021 0.10281372 -0.18638426
0.14107047 -0.068294905 -0.062819816 -0.30156767 -0.06641249 -0.09582086 0.2804938 0.100555755
0.051314447 0.34026155 -0.06532615 0.16033345 -0.09267404 -0.0670774 0.0015990451 0.09908281
-0.00187237 0.15391468 0.045246053 -0.096195854 0.22122002 -0.12389606 0.0869079 -0.10246759
-0.019908449 0.16515557 -0.15773985 -0.22809766 0.0726496 0.079096235 -0.131936 -0.18637386
-0.22037964 -0.10202613 0.010513198 0.32520172 0.20155263 0.03792038 0.06165132 -0.07125389
00000000: c2cc 8b3c dc58 dc3c deb9 47bd e15b 42bc
00000010: ba16 96bd 45e5 ea3d 3475 d83d b3e5 29be
00000020: 0074 0fbd c3a6 0fbe a945 053e e3e4 803d
00000030: 5a52 723d 45df fd3d a828 04bd c437 d1bc
00000040: c418 85bd 68dc 6ebb 828e 043e fb55 eabd
00000050: cc92 863d d4b9 50bd adf1 a43d 3b6e 013e
00000060: c540 56bd 181d 1d3d 3803 20be 5152 173c
00000070: 7045 123d c2b4 523e e725 bbbe 7b78 4d3d
00000080: 584a 043e 259f 703d a690 7f3e 162a db3c
00000090: eef6 e63c 9550 0abe 5629 1d3c 9d79 ba3c
000000a0: a248 f43d e77a 61be 7178 5e3c 82ca 883e
000000b0: 945f a03c 3c40 4a3c 387c 92be 0843 a1bd
000000c0: d5a8 71be f0cc 55bd 6c29 bb3d 0d5f 663e
000000d0: 7062 17be c59f 7b3d 4a7b 923e 5eac a93d
000000e0: 2335 27bd 854a 1a3e 0970 973d d0f8 223c
000000f0: 09c7 1cbe cf44 173e d325 d6bd 8272 09be
00000100: c2bb 233d 1473 513e 17d6 983d 2981 85bb
00000110: 7a5c 45be b697 543d 9f19 663d 99bc 5939
00000120: 08ff 713d b37b 1c3d 0906 e83c d0de 8abc
00000130: 80fd 4cbe f909 20bd fd54 1c3d 7e8e 20be
00000140: 7eca 06be aa76 abbd 425b 44bd f3ce 13be
00000150: 69a2 ebbb 9428 593e b89b 0dbd 8b69 fe3c
00000160: e6a8 943c 1217 973c 7d7a 51bd 4fbb 02be
00000170: 1979 3dbe c1eb da3b b76c c5bd a440 b73d
00000180: 6b10 883d 89e6 31be e114 7dbe bad4 833d
00000190: 516d 19be 2b16 213e 775f 3e3e e5d5 07be
000001a0: 5741 573c 35cc 4abe 8fbc d2bd c88c 01bd
000001b0: 0ccd b5bd b50c 713d 0136 833e a21c 903d
000001c0: 6adf d9bd 652c 0ebe eb0a 243e 1c61 80bc
000001d0: 6075 9a37 59b0 473e 5a2b 10bd 6a9c 5c3e
000001e0: 2ea6 a8bd 83da 37bd cd91 5b3d 0bfa ed3d
000001f0: c733 9b3d c67f 0abe 306d f63a d02c 39be
00000200: dd5b 033e 57e5 58be 6cd7 22be 6ba8 50be
00000210: 3971 343e adca d5ba 4451 cf3d f3ff a93d
00000220: 44d1 e13d 1500 c23d 976b 46be 52a1 833c
00000230: 6e75 a1bd f302 2c3d afe3 9cbd 4731 90bd
00000240: 0df9 933e 504e 83bd 2f7d 80bc f6b4 1fbe
00000250: 5597 4d3d d25b 66bc 1f5a f23c f546 bb3d
00000260: 49ef 003e 6d07 6f3d 100d b4bc 82f3 303e
00000270: e80a 303c 99ee 3bbd 6fdc 443e aa64 6cbe
00000280: 4623 e23c 7f5f b63d 8748 24be 3812 8f3c
00000290: 7a4e 163e 3a79 59bd 728a e83d 0022 7c3e
000002a0: 2913 583c 0486 b0bd 94e2 583d 50eb 9d3d
000002b0: a2fc 1c3e 46ac b53c a68d dbbd 77ef fdbd
000002c0: d1f6 f63c b4a7 24be 8b2a d9bd 3095 a33d
000002d0: c772 6cbd bcf8 e4bc 8cc6 bd3d d829 933d
000002e0: 6c9b 453d 7188 08be 54f3 3e3e a03d e53d
000002f0: 847a 09bb a874 cf3d 20ea d53d 1e03 963d
00000300: 566b e1bc 5fa2 f03d 21b4 04be c3e3 283e
00000310: c482 26bc 892a 14be 2b9b 45bd 6c9f 893d
00000320: 294d be3d 31ff 74bd 2371 7abd 5ba0 423e
00000330: 6edf 91bd fadc 92bd 4912 603d c48d f8bd
00000340: 8223 de3c fcc6 82bd edd5 fa3d 288f c8bd
00000350: 023a c6bd 3071 0f3e 0090 d23d 84db 3ebe
00000360: c774 103e 33de 8bbd ada7 80bd 1467 9abe
00000370: 4603 88bd ba3d c4bd e29c 8f3e 2df0 cd3d
00000380: 192f 523d c336 ae3e b7c9 85bd 742e 243e
00000390: e3cb bdbd e05f 89bd 0d97 d13a eeeb ca3d
000003a0: 506a f5ba cf9b 1d3e ed53 393d 5502 c5bd
000003b0: 8087 623e 38bd fdbd c5fc b13d 87da d1bd
000003c0: 0b17 a3bc 8b1e 293e 8e86 21be 6f92 69be
000003d0: 50c9 943d 35fd a13d 3b1a 07be cad8 3ebe
000003e0: 33ab 61be 13f3 d0bd 8c3f 2c3c d780 a63e
000003f0: d063 4e3e 6652 1b3d 1886 7c3d 8fed 91bd

linear3.bias f4 [10]
-0.09854365 -0.055209186 3.6928475e-05 -0.10318407 -0.018158393 0.026282769 -0.05544838 -0.012727545
-0.0024169846 0.030286934
00000000: 41d1 c9bd 0723 62bd a6e3 1a38 2b52 d3bd
00000010: e9c0 94bc f64e d73c d71d 63bd 3187 50bc
00000020: 4666 1ebb 4e1c f83c
