Task2/models/cnn-parrallel-True.pth (torch, 286034 bytes, 10 tensors)

module.conv1.weight f4 [6, 1, 3, 3]
00000000: b235 0f3f 95da 81be e96b 6dbe 7444 33be
00000010: f4a8 713e db54 6ebe be40 d23d 7133 29be
00000020: b41d 8a3e 602f bbbe 2650 9cbe 37bd 34bd
00000030: 0f96 dcbd db14 87be a253 483c d72b 22be
00000040: 7b63 2abe 45f2 c0be ac52 543d d922 2b3f
00000050: af72 553c efc2 1fbc c9ea c7bd 9ff6 12be
00000060: 6354 efbe 5cab a3be 74e1 e9be d98b 363f
00000070: 00f0 143f 48c0 26bf 1dbe 293f 83f3 acbd
00000080: 3d37 17bf cde4 503f b74e ac3e 2b96 02bf
00000090: 9bb6 983f 0f91 a63f 93b4 893f f7d3 8cb9
000000a0: d2de 81bd e6d7 463e 1491 3ebe bf5b 23bf
000000b0: a72b 0dbf 2f5e 51bd bd6f 193d d925 9dbe
000000c0: 0ba5 30be eea9 98be a436 4abe 1451 20be
000000d0: 6c2d d7be 91fe 2f3e
0.5594131 -0.25362077 -0.23185696 -0.17506582 0.23599607 -0.23274557 0.10266255 -0.1652353
0.26975787 -0.36559582 -0.30529898 -0.04412576 -0.10770809 -0.263831 0.012226971 -0.15837036
-0.16639511 -0.37684837 0.051836655 0.6685005 0.013027831 -0.009751066 -0.097615786 -0.14351891
-0.4674407 -0.31966674 -0.4567982 0.7130714 0.5817871 -0.6513715 0.66305715 -0.08444884
-0.5906866 0.8159912 0.33653805 -0.5101039 1.1930727 1.3013018 1.0758232 -0.00026860807
-0.06341328 0.19418296 -0.1861003 -0.6381187 -0.55144733 -0.05111521 0.037460078 -0.30692938
-0.17250459 -0.29817146 -0.19747406 -0.15655929 -0.42026842 0.17186953

module.conv1.bias f4 [6]
00000000: 1f6d 95bc 4a10 36be 029b 1f3f decb 49bc
00000010: 55fa f43e e94b cc3e
-0.01824051 -0.17779651 0.623459 -0.012316672 0.47847238 0.39901665

module.conv2.weight f4 [10, 6, 3, 3]
00000000: 67b0 68bc 4580 76bd 1ec0 24bc 19ee 95bb
00000010: 9ab4 2cbe 4e6a b5bd 1bda d13d d058 14bd
00000020: 1182 50bd 78e6 fb3d 240b a6bd 404e 98bd
00000030: e296 e4bc 495e 95bd ab62 b03d e3bd c53d
00000040: dc3c 5c3d f67f fbbc 7298 133c 9227 b3bd
00000050: 82e5 b83d cbf8 8c3d 3d58 38bb 593c 7d3e
00000060: 6fdd a33d 5079 b33d 48f9 0cbe 06df cabd
00000070: cf02 753d b431 7b3b 8469 60be c02b c1be
00000080: 1266 a8be a315 5cbe 2879 34be 2455 a0bc
00000090: 485f 8b3e 475e 8c3e ef23 383e e49e 1dbe
000000a0: 10c2 ae3e 9db0 ec3e 0942 ccbe 046d d4be
000000b0: 1af0 dabe 9f0a 26be c466 1cbe 3b8c 30be
000000c0: d672 063e eed1 833d aae1 1f3c 7886 adbd
000000d0: d510 89bd 772d 0f3e 6dea 363e 208c 1e3e
000000e0: 6b05 3abd 560f c0bd 4e9b cabd f89a 253e
000000f0: 3a18 803d fe87 cdbd d3dd 4b3b 538d 69bd
00000100: 1335 ccbd 3848 003e 1589 0ebc daa7 9a3c
00000110: a83a 9bba 524d 1f3c e3be e93d 6653 f4bd
00000120: 34df 9ebc 788c 2cbc 793c c53d 3f54 f93c
00000130: 5c7a 0fbd 46df 0bbe d1a3 2fbc c54c 8b3d
00000140: f8d2 16bd 3ce5 b23d 6245 b03d bb6f 83bb
00000150: 2f32 683d 1335 d2bd 42df 133e 4ef3 f2bd
00000160: bebb 943c cae5 803c b46e ac3e 70f7 373c
00000170: 7896 d4be 27ce fabd 26aa 0d3e 2f10 64bc
00000180: 9d45 8dbe 7225 81bd 0f76 543e 4884 c0bd
00000190: 3d06 14be 28cd 5e3d 955a 083e ee34 f9bc
000001a0: a1b0 f83d 299e bb3d 1a25 e4bc 464f e2bd
000001b0: aca1 d73d 4648 bcbd 5aa5 abbd 289c f9bd
000001c0: cf1a 0a3e f322 3bbd b6b7 583d 231c cb3d
000001d0: eb65 9cbd b928 e23b 26be fbbd 3814 803d
000001e0: 0e7a 903d 01ab d8bd c4f1 bbbd d0fd 1fbd
000001f0: df72 e6bd 5b04 66bd a01a 853d 3fae 58be
00000200: f57c cabd 16bf 0dbe 38dd 4cbe 99a9 26bc
00000210: 6e17 9cbb 4826 313d 4379 25be aea4 1f3e
00000220: fea1 da3d feea 5c3e b1a6 88bc 1392 233e
00000230: 3128 b03e 1f66 20be 65d0 413d f185 f73d
00000240: e964 6f3d 3ff6 193d f431 0e3d 6c63 963c
00000250: 52e5 cbbd 14bc e3bc 0cd6 583b b9d4 18be
00000260: 91b9 a23d 3f31 7f3d 305e 05be 78be 62bd
00000270: 3aa8 15be d09c aabd 23b6 0ebe 06bd 223d
00000280: 024b edbd bb51 c4bd 6a86 cb3c 63de e63d
00000290: 7179 bd3d d61f 2bbe 5158 06bd 5520 0bbe
000002a0: 316d 90bd d8db 883d 21cc 02bc 5d4b 26bd
000002b0: d818 22bd 6e35 7ebd 1d86 b23a fd5f 01be
000002c0: d8ca bebd e659 ec3d fc60 803d edc3 073e
000002d0: 56ef e0bd 1bbd 6ebe cfbb 7ebd c75f 0c3d
000002e0: 0d30 96bd af69 a0bd 3701 0b3e d37a e13d
000002f0: efc1 ca3d 3a25 873b 3d40 86be d7f9 9bbd
00000300: 17ce 58bd 32dc b0bd f0bb cebd d30d 17be
00000310: a45d 99be 2d6c 3cbe b638 863d 9834 9e3d
00000320: d25d c53c 0af1 cd3e 36d4 e03e afa4 c13e
00000330: a037 853d 614f 3b3d dfb5 e1bd 26a1 70be
00000340: ebe0 2cbd 0028 a3bd 02bd 0e3d 2023 f5bd
00000350: e909 28be 8915 a73d 4320 853d 7209 caba
00000360: e57e 003e c81f 993c 1d65 0cbe 162e 07bb
00000370: 9da9 a6bd 2641 463e d371 febd a97b e83d
00000380: f123 ab3b c1a4 92bd 3a66 0ebe 5182 bfbd
00000390: 11bd 2bbd c6b7 083d 4d0a 34be babe 1cbe
000003a0: 24d1 793a 8740 c63c fac7 01bd 3d43 6dbe
000003b0: 683a adbe d16b 18bd 6249 96be 09bb babd
000003c0: 6081 31be eb35 24be fc98 86be 4a72 95be
000003d0: 9ec4 5dbe 87a9 823e 3554 3fbe abf4 523e
000003e0: f602 0b3f 9ec1 44be ef7f e33e 1280 cb3e
000003f0: c916 61be 918d c9be b7b0 d53e 1300 e5be
-0.014202214 -0.06018092 -0.01005557 -0.0045755026 -0.16865769 -0.08858167 0.102466784 -0.03621751
-0.05090529 0.12299818 -0.08107594 -0.074368 -0.027903978 -0.07293374 0.086125694 0.09655359
0.053768978 -0.030700665 0.009008514 -0.08747782 0.0902815 0.06883391 -0.0028128766 0.24730052
0.080012195 0.08763373 -0.13766968 -0.099058196 0.05981713 0.0038329186 -0.21915251 -0.3772869
-0.32890373 -0.21492629 -0.17624342 -0.019571848 0.2722113 0.27415678 0.17982458 -0.15392643
0.34132433 0.46228495 -0.3989413 -0.41489422 -0.42761308 -0.16214989 -0.15273577 -0.17240994
0.13129744 0.06436525 0.009758392 -0.084729135 -0.066926636 0.13982187 0.17862864 0.15483141
-0.045415323 -0.09377925 -0.09892903 0.16172397 0.06254621 -0.10035704 0.003110756 -0.057019543
-0.099710606 0.1252755 -0.008699675 0.018878866 -0.0011843042 0.009723024 0.11413362 -0.119299695
-0.01939354 -0.010531537 0.09630675 0.03043568 -0.0350288 -0.13659391 -0.010720209 0.06801752
-0.03682229 0.08735129 0.08606984 -0.004011122 0.056688484 -0.10264029 0.14440635 -0.11862813
0.018155929 0.015734572 0.3367821 0.011228427 -0.4152105 -0.12246352 0.13834438 -0.013919874
-0.27592173 -0.0630597 0.20748161 -0.09400231 -0.14455505 0.05439487 0.13315804 -0.030420747
0.12143064 0.09161026 -0.027849723 -0.110502765 0.10528883 -0.091934726 -0.08381148 -0.121879876
0.13486789 -0.045687627 0.052909575 0.09917476 -0.07636627 0.006901827 -0.12292127 0.062538564
0.0705453 -0.105794914 -0.091769725 -0.039060414 -0.11252379 -0.056156497 0.06499219 -0.2116022
-0.09887115 -0.13842425 -0.20006263 -0.010172271 -0.004763535 0.0432494 -0.16159539 0.15590164
0.10675429 0.21574017 -0.016681047 0.15973692 0.34405664 -0.15663956 0.04731788 0.12086094
0.058445845 0.037588354 0.034715608 0.018357955 -0.09955849 -0.027799644 0.0033086566 -0.14924897
0.0794555 0.062302824 -0.13024211 -0.055357426 -0.14614955 -0.08330691 -0.13936667 0.039731048
-0.11586572 -0.09585901 0.024844367 0.11272886 0.09251679 -0.16711363 -0.03279907 -0.13586552
-0.070520766 0.06682557 -0.007983238 -0.040599216 -0.039574474 -0.062062673 0.0013620291 -0.12634273
-0.09316033 0.11540584 0.06268498 0.13258334 -0.1098315 -0.23314326 -0.062190827 0.034271028
-0.07333384 -0.078326575 0.13574682 0.11009755 0.09900271 0.004124311 -0.26220885 -0.076160125
-0.052930918 -0.08635749 -0.1009444 -0.14751367 -0.29954255 -0.18400641 0.065537855 0.07724875
0.024092589 0.4022296 0.43911904 0.37820956 0.0650475 0.04573 -0.11021017 -0.23498973
-0.042206686 -0.07966614 0.03484822 -0.1196959 -0.1641003 0.081584044 0.06500294 -0.0015414192
0.12548406 0.018691912 -0.13710447 -0.0020626835 -0.0813782 0.1936079 -0.12424054 0.11351711
0.0052227904 -0.071603306 -0.13906184 -0.09351028 -0.041928355 0.033378385 -0.17582054 -0.15307131
0.00095297606 0.02420069 -0.031684853 -0.2317018 -0.33833623 -0.037212197 -0.29352862 -0.091177054
-0.17334509 -0.16036193 -0.26288593 -0.29188758 -0.21657035 0.25519964 -0.18684466 0.20601146
0.54301393 -0.19214484 0.44433543 0.39746147 -0.21981348 -0.3936582 0.41736385 -0.4472662

module.conv2.bias f4 [10]
00000000: e7ff d5bd f2ab 243c bdbc b93d 4bb1 c3bd
00000010: b1d3 4b3d 76ba c7bd c4b0 e8bc 794f f63b
00000020: a6ce d3bb dcd1 babd
-0.104492 0.010050761 0.09069202 -0.095553 0.04976243 -0.097523615 -0.0284046 0.007516798
-0.0064638434 -0.09122059

module.linear1.weight f4 [120, 490]
00000000: da0a 32bd fe63 833c 49d8 8ebc fabd 16bd
00000010: a3c8 8f3c d086 253d 3d3f b53c 8dde 303d
00000020: fe50 2bbd 6368 8a3c 43eb e1bb 5b3c 29bc
00000030: b456 3fbc 55bc ad39 0b84 f8bb 6bfa 883c
00000040: b321 933c 4a0d 4ebb 7a59 16bd 6f2c 153c
00000050: 6b6f c0bc c0b9 2abd 7453 31bd 95db 42bc
00000060: 5a42 ffbc 0809 0fbd 194f ebbc 60d7 043d
00000070: f2ab 88bc 0d27 ccbc 2740 d83c adcf c7bc
00000080: ee0f b13c 9f26 8e3a f5f1 b8bb 304c b4bc
00000090: 90a6 18bd a2dd 8a3c baf5 d6bc c0e0 1bbd
000000a0: 2deb e2bc ca2f 283d 9b85 173d f1ce 163c
000000b0: aed6 3a3d 9cf2 08bd 3c47 afbb 66e1 0b3d
000000c0: e144 72bc f378 a0bc be1c 2d3c dcb7 58bc
000000d0: 11dc 503c 7762 213d ed5c 343d 60be 47bb
000000e0: 4d04 25bd 134c fdbc a27e 22bd cb8f 9c3c
000000f0: 0122 30bd 1692 32bd e06f 0abd 8526 c6bc
00000100: 5550 cebc 84f8 28bd 8810 ca3c 7a7a 463c
00000110: a363 33bd 2bcf d9bc fb97 333d 6f20 2b3c
00000120: f592 843c 17ad 2cbd 8d91 d83c 637a 07bd
00000130: 8fad 243d ef77 20bd a223 80bc d8e4 913c
00000140: 2f4f ccbc 9670 3bbd e52b 20bd 4891 26bc
00000150: e01b b33b ca4a 19bd f331 783b 69fe 1c3d
00000160: 1d2b 2c3d cf40 c73c 3687 ff3c 3ee3 1cbd
00000170: 2d71 0fbd 44fc 35bc 4158 193d ec11 363d
00000180: dd52 983c 9ec7 aebc 1eea 873c b579 0cbd
00000190: 0b22 ccbc f722 763c afc3 003d bf23 723c
000001a0: c196 29bd 8ebe 243d 10d8 33bc 03f1 1d3d
000001b0: ff4c b03b a3bb 1c3d 708a c63c 90ed 193d
000001c0: d152 cbbc fac8 973c 8436 243d 9dba 903c
000001d0: fc59 053c 8683 c23a 2264 1fbd 5163 023d
000001e0: f61d 24bd 9f7e e6bc 127f 08bd 21bc 0cbd
000001f0: 3166 09bd 50ae d63c 2a8a 083b 3cd3 bcbc
00000200: 37e2 36bd 4713 f1bb 9300 9a3b 9b75 93bc
00000210: b869 323c f46c db3c 205f 183d e737 26bc
00000220: 6e93 0bbc 40d4 e9bc 16f7 22bd 2209 6bbc
00000230: 73b9 96bc 8960 0f3c f35b 053d 8277 85bb
00000240: 022b 7abc 3f1c 0f3d a07d 323d 2493 303d
00000250: b65e 9dbc debf 303d 6699 2abd a154 4239
00000260: c113 18bd 3845 83bb 33d3 a5bc 0df5 22bd
00000270: a149 83bc 6b9b e5bb ec75 70bc f2e0 183c
00000280: 40e7 e7bc 30f0 ff3c f6fd 013d b666 1fbd
00000290: a6d4 e2bb fef0 1f3d 2c9a d0bc 4ae3 c3bc
000002a0: 55ff 23bd 17d8 8b3c a96f 36bd dee8 adba
000002b0: e523 163c 865a 1bbd 3804 ea3b c349 b13b
000002c0: 9eae fe3c b97f 10bd 9b0f 04bc 83d4 0cbd
000002d0: 2480 963b e314 1e3d d917 de3c 05ca 00bd
000002e0: e33e 0abc 53c4 b93c fe3f 163c 4773 c13c
000002f0: 5d1e 753c 6222 84bc fcd2 23bd 1dc9 e2bc
00000300: 56c2 2f3d d5f0 bb3c 35dd 733c 3359 093c
00000310: fff1 023b d890 2dbd d09b 5739 84c3 b13c
00000320: f1ce fc3c 0e97 09bd 5bf5 25bd 1a64 3a3c
00000330: 6203 1e3d c6dc d0bb c18b a7bc 06f1 10bd
00000340: 1e0b 6f3b de1d 33bd 430f e03c 3587 733b
00000350: 5391 15bc 1292 063b b03c 10bd 3cff d03c
00000360: aff8 ad3c f333 d9bc c974 6a3d 6922 7cbc
00000370: 01b2 17bd 5cda b4bc 9c87 303d 1e42 41bc
00000380: e98a 08bd b75e 33bb c2e2 25bd b34a 1abd
00000390: d1a6 583d ae0a 883c 646f 94bc 76fa 1c3c
000003a0: 260d 3abc 7183 023d 0850 003d 0f3c ca3c
000003b0: acf0 253d e94c 2dbd 1a9b dabc 385f 12bd
000003c0: 26cd 1d3d ae4d a33c 3bfe 3a3c c8e6 16bd
000003d0: afb1 c8bc b17b 0b3c 5004 07bd da8a adbc
000003e0: c213 12bd 1e6e b53c d125 373d bfa8 1abb
000003f0: 964a d7bc 83b6 f83c 3361 81bc 7cf8 c43a
-0.04346738 0.01603889 -0.017437117 -0.03680227 0.017551726 0.04041177 0.02212488 0.04318099
-0.041825287 0.016895479 -0.0068945005 -0.010329331 -0.0116783865 0.0003313745 -0.0075841 0.016720971
0.017960405 -0.0031441026 -0.036706425 0.009104832 -0.023490628 -0.04168105 -0.043292478 -0.011893173
-0.031159569 -0.034920722 -0.02872424 0.03243196 -0.016683552 -0.024920965 0.026397778 -0.02439102
0.021614041 0.001084525 -0.005644078 -0.022008985 -0.03726822 0.016951386 -0.026240218 -0.038056135
-0.027700031 0.0410612 0.03699265 0.009204612 0.04561489 -0.033434495 -0.005349068 0.034150504
-0.01478693 -0.019588923 0.010565935 -0.013227429 0.01274778 0.039400544 0.044033933 -0.0030478463
-0.040287305 -0.030920064 -0.039671548 0.019111535 -0.04300118 -0.04359635 -0.0337981 -0.02418829
-0.02518479 -0.041252628 0.024666086 0.012114162 -0.043796193 -0.026588043 0.04384611 0.0104447445
0.016183356 -0.04215726 0.026436592 -0.0330757 0.04020458 -0.039176878 -0.015641991 0.017809317
-0.024940101 -0.045761667 -0.03910436 -0.010166474 0.0054659694 -0.03742484 0.003787157 0.038328562
0.042033304 0.024322895 0.031192403 -0.038302653 -0.035020042 -0.011107508 0.03743768 0.044450685
0.0185942 -0.02133542 0.016591128 -0.034295756 -0.024918577 0.015022985 0.03143662 0.01477903
-0.041403536 0.04022079 -0.010976806 0.038559925 0.0053802724 0.03826488 0.024235934 0.037580073
-0.024819763 0.01852845 0.040091053 0.01766711 0.00813913 0.0014840222 -0.038913853 0.031832997
-0.040067635 -0.02813655 -0.03332431 -0.0343591 -0.033544723 0.026206166 0.0020834305 -0.023049943
-0.04464933 -0.0073570344 0.0046997755 -0.018000415 0.010889463 0.026785351 0.037200093 -0.010145164
-0.008519037 -0.028543591 -0.03978642 -0.014345439 -0.018398976 0.008751043 0.032558393 -0.0040730843
-0.015269043 0.034939047 0.043576837 0.043109074 -0.0192102 0.04315173 -0.0416502 0.00018532808
-0.037128214 -0.0040060543 -0.02024231 -0.03978448 -0.01602632 -0.0070070527 -0.014676552 0.009330975
-0.02830851 0.03124246 0.031736337 -0.038916312 -0.0069223223 0.039048187 -0.02546414 -0.02391209
-0.040038425 0.017070813 -0.04454008 -0.0013268252 0.009163831 -0.037928127 0.007141616 0.0054104044
0.031089123 -0.035278056 -0.008060361 -0.034382354 0.0045929123 0.038594138 0.02711098 -0.03144266
-0.008437845 0.022676622 0.00917053 0.023614539 0.014960852 -0.016129676 -0.039996132 -0.027683789
0.042909943 0.022941986 0.014884283 0.008383083 0.0019980667 -0.042374462 0.00020562042 0.021699674
0.030860396 -0.033591323 -0.040517192 0.011376405 0.038577445 -0.0063739745 -0.020452382 -0.035386108
0.0036475132 -0.043729655 0.027351027 0.0037159447 -0.009128886 0.0020533842 -0.035214126 0.02551233
0.021236746 -0.02651403 0.05724028 -0.015389063 -0.037034992 -0.022076778 0.043098077 -0.011795549
-0.0333356 -0.0027369687 -0.040499456 -0.037668895 0.052893464 0.016606655 -0.018119521 0.009581199
-0.011355674 0.031863634 0.031326324 0.024686841 0.040512726 -0.042309675 -0.026685286 -0.03573534
0.038525723 0.019934501 0.011413152 -0.036841184 -0.024498789 0.008513377 -0.032963097 -0.021184374
-0.035663374 0.022147235 0.0447138 -0.0023599116 -0.026280683 0.030360466 -0.015793419 0.0015027667

module.linear1.bias f4 [120]
00000000: bfe6 21bd 3165 933b 064c 73bc 4dd7 393d
00000010: f080 583c d267 bebb 0298 cabc 3e00 113c
00000020: b014 1d3d 8484 a7bc 0c3b 1a3d 7ed9 333d
00000030: 2d6e 603c d71d 20bd 9251 a4bb 134d 053c
00000040: 680b 003b ee65 27bc b139 183d e045 713d
00000050: 281d 2c3d ace5 9b3c 1257 e33c 8a2b 9f3b
00000060: 181b 8cba 6861 84bc e355 10bc 15c6 13bd
00000070: 4cf0 debc ed5c e83c acee e13b 85f8 a23c
00000080: 7c73 483c 6e69 92bc 3dab 623c 8ebd 863c
00000090: 2db2 553c b06b e5bc caa9 f43c 0677 dcba
000000a0: cb04 31bb 317f 13bd 67ec 273a 0260 2a3d
000000b0: 2ba2 d1bc 6a04 16bd c0f6 d2bc 5b9a 00bc
000000c0: a3ac 833c 6cd2 8c3b ebc3 07bd 03e0 303d
000000d0: b034 26bd 1daf e9bc d30c 523b 42ed adbb
000000e0: 1ae7 66bc a607 dfbb 40f4 19bd c67f adbc
000000f0: ba42 f13c 48de d03c e9d6 283d 6fe9 cfbb
00000100: 9209 6ebb 854d ce3c 3e6f acbc e194 133a
00000110: 6e3b 0cbd 024f 17bd 9999 3fbc 34e0 fcbc
00000120: 1bdc f7bb c328 233d 3ad2 0a3d a090 ba3b
00000130: 9fd3 f0bc b18f 1f3d 9d53 173d 27a1 063d
00000140: 3288 693d 34f7 193d 582e 463d ca49 df3c
00000150: 3a58 f33b b908 f33c 60e5 fabc 6aa2 093d
00000160: 3305 cebb 94dd f1bc e3f0 c8bc c1b8 cfbb
00000170: d6cc 0dbd 9f19 e93c b83d b2bc 17e1 893b
00000180: 0cdf 17bc d1fd e93c 1911 623c 6b6a e1bc
00000190: fafe 94ba fa4c ffbc b4fb c03b ebeb ba3c
000001a0: 4eea a03b 2506 46bb d39c 2fbc 2145 85bc
000001b0: 8f08 09bd c16a 323d a506 cd3c 1424 a33c
000001c0: c02f 5dbb 51c0 28bd 9556 4abd 98c7 80bc
000001d0: 8370 08bd 0467 083d 67bc 523c 98e5 f83c
-0.039526697 0.004498147 -0.014849668 0.045371342 0.013214335 -0.005810716 -0.024730686 0.008850155
0.038349807 -0.02044893 0.037653968 0.04390859 0.013698143 -0.039090957 -0.0050146068 0.008136052
0.0019538049 -0.010217173 0.037164394 0.05890453 0.042019993 0.019030415 0.02775148 0.004857485
-0.0010689227 -0.016159728 -0.0088095395 -0.036077578 -0.027214192 0.028364623 0.006894907 0.019893894
0.012234565 -0.017872538 0.013834772 0.016447809 0.013042969 -0.028005451 0.029866118 -0.001682014
-0.0027010913 -0.03600997 0.0006405771 0.041595466 -0.025590023 -0.036625303 -0.025752425 -0.007849301
0.01607353 0.004297545 -0.033145826 0.043182384 -0.04057759 -0.028525883 0.00320511 -0.0053078244
-0.014093185 -0.0068063317 -0.03758645 -0.021179091 0.029450763 0.025496617 0.04122058 -0.006344966
-0.0036321622 0.025183449 -0.021049138 0.00056297897 -0.034236364 -0.036940582 -0.011694335 -0.030868627
-0.0075640804 0.039833795 0.033891894 0.00569351 -0.029397784 0.038955394 0.036944974 0.03286853
0.05701465 0.037589267 0.04838404 0.027256865 0.007426289 0.029667245 -0.030626953 0.033602156
-0.006287241 -0.029524602 -0.024528926 -0.006339163 -0.034619175 0.0284546 -0.021757945 0.004207741
-0.009269487 0.028563412 0.013798022 -0.027516564 -0.0011367493 -0.031164635 0.0058893804 0.022817573
0.004910744 -0.0030216065 -0.010718542 -0.016268315 -0.033455428 0.04355884 0.025027582 0.019914664
-0.0033750385 -0.041199032 -0.049398977 -0.015720174 -0.033310425 0.03330137 0.012862301 0.030382916

module.linear2.weight f4 [84, 120]
00000000: 4849 b0bc 863f e93d 419b 25bd 447d 933d
00000010: 76e4 3cbc 6e6a a43d 3e36 733d d224 8a3d
00000020: fbf8 d6bd cf58 e1bd cdee 8cbc 661b 6bbd
00000030: 932a cabc 0600 cfbc c4ae 2ebb 3a6e 693d
00000040: b4ed f13d 31c1 a43d dc76 8c3d d555 15bd
00000050: e8b3 8ebd ae4c c5bc f069 23bd 4f39 99bd
00000060: 9eb2 97bd 5335 0d3d 6809 4d3c a3df a8bd
00000070: 4d92 133d f200 b7bd 0f40 c93d 9c75 e3bb
00000080: 56fc 79bd cd04 80bd a1a4 ccbd cc53 993d
00000090: 6d97 ff3d a31c cfbc 9f76 5e3d 18bd f3bc
000000a0: ad8d 8fbd 6cde ec3c 36e3 36bd 56ff 7c3d
000000b0: 2508 87bd 5553 d83a 9560 38bd f099 813d
000000c0: 4335 a6bd bef5 333e 40ca c7bd 9ead 08bc
000000d0: 375c 90bd 5a4b 6c3d db6b 32bd cf60 703d
000000e0: fe2a 80bb 1ffb 18bd e3e8 313d 564e fa3c
000000f0: e20e 623d 462c adbd b8fc 5d3d 9bd5 0cbd
00000100: ad4d acbd a0bc 763d 8048 9bbd 2725 26bd
00000110: 39a4 40bd 8c23 b3bc 8b81 a93d 4f6f b4bd
00000120: add2 1b3d 94c0 ac3d 0861 a53d e71d 4e3d
00000130: f184 e73d aa46 b1bd b519 0d3e aefd b33d
00000140: 3e9f a63c 0397 ce3d dfc5 063e 76d2 dc3d
00000150: 838a 6a3d c093 81bd 3b60 91bc c2e2 5cbc
00000160: 3843 aabc 0b2f b93d 0cdb 8c3d e204 3abd
00000170: 81fc 32bc 0d69 c0bd 919f 43bd 9439 91bd
00000180: a98e 853d cc77 3c3d 0ff9 1e3d 9be7 23bd
00000190: d08a 95bc 171b f0bc 4f26 db3c 3774 183e
000001a0: 2510 4abc 7f7c d5bc e977 40bd 9372 e5bc
000001b0: b980 b83c 4ca6 34bd f425 03bd 3733 7abd
000001c0: 9939 423c 7db0 84bd 6bb4 89bd 174d b6bd
000001d0: 4781 073b 7490 913d 9643 0a3e b06a a6bd
000001e0: fd66 7cbd a1c4 173d 8ed0 0f3d d474 773d
000001f0: 3c64 6c3d e2e6 153d 1d31 413a f213 f5bc
00000200: 29cf 52bd 00be 82bd 83d0 ca3d 0517 a13d
00000210: 0b53 513d 99af 98bb f563 a8bd dd9e 4f3d
00000220: fe3b 9bbc 1fcc e53b 0448 1d3d 4a4f 0ebe
00000230: a8b4 393d d62b 343c c21f 563c 91ba 953d
00000240: b6b4 02bd ab19 bc3c 7134 12bd d89d 76bd
00000250: 0a84 c73c 0e68 adbc 6b11 a63d 01dc 86bc
00000260: 7cfb 7cbc 7e18 923b 8739 e33c d058 293d
00000270: 50c8 5fbd 698d 32bd 60cc 753d b3b5 8cbc
00000280: a6bf 9f3d 01e8 18bd 821e a53d 25b1 96bd
00000290: ed99 303d 203b 913c 26c3 b1bd c68f 293c
000002a0: 36eb 46bd e239 163d afaa 0c3d 132c 8ebd
000002b0: e785 9fbd b0cf fa3c 054f aebd 0280 56bd
000002c0: d813 a2bd ee4f 54bc b67a d23d 1932 43ba
000002d0: baf9 8a3c f96d 43bd 8662 bfbc f1c7 ab3b
000002e0: 612e aa3d 3793 96bd 5dc4 873d be8f 563c
000002f0: f920 a73c bea2 89bd 5c25 8b3c edd8 dfbb
00000300: e41a 07bd 4747 e4bd 49af a3bd 5645 9abd
00000310: 12ad 943d e833 83bc 7883 a4bd 1632 773d
00000320: 81e3 a7bd 6073 0c3d 28cb 1fbd a77b 8f3d
00000330: f64f 91bd ecd1 c33d 5b24 a23d fe24 49bd
00000340: f861 8cbd 9f3f 8dbd fef8 7bbb c1b5 823b
00000350: b938 40bd 683f a73d 8454 9f3d 91b5 1ebd
00000360: 14f1 7a3d f498 64bc 2aa4 f03c 49c6 44bc
00000370: 0ec2 75bd 296f 7cbb 0660 9ebd 02ab e73c
00000380: 8973 da3d d136 50bd a732 083d 2bf7 c03d
00000390: f375 9c3d ad8b c7bc d7c6 d9bc f71b dabc
000003a0: aa84 53bd 0827 633c 306a 223d 16bf a2bd
000003b0: 448e 2c3d 320e ca3c 45b8 c03d 5376 8c3d
000003c0: c756 ce3b 7751 a6bc 773a dfbc 9900 8b3d
000003d0: 26ba 0b3d 2eca 8e3d 2f77 e23d 6f62 053e
000003e0: 8325 853d 120b 733d 9f6a 983d 2480 b0bb
000003f0: c819 ac3d 22bc de3d 611e c5bc 314b b63c
-0.021519318 0.11389069 -0.040431265 0.07201627 -0.011529079 0.08028112 0.0593779 0.06745304
-0.10496708 -0.11003267 -0.017203713 -0.057399176 -0.024678504 -0.025268566 -0.0026654461 0.056989886
0.118129164 0.08044661 0.06858608 -0.03645881 -0.06967908 -0.024084415 -0.03989595 -0.07481634
-0.074071154 0.034474682 0.01251445 -0.0824578 0.036028195 -0.08935727 0.09826671 -0.0069415104
-0.061031662 -0.06250916 -0.09992338 0.07486686 0.12480054 -0.02528221 0.054312345 -0.029753253
-0.070094444 0.028914653 -0.04465028 0.061766945 -0.0659335 0.0016504327 -0.045013983 0.063281894
-0.081156276 0.17574212 -0.09755373 -0.008342175 -0.070488386 0.05768905 -0.04355989 0.058686074
-0.003911375 -0.037348863 0.04343499 0.030554932 0.055189975 -0.0845571 0.05419609 -0.034383398
-0.08413253 0.06023848 -0.07582188 -0.040562775 -0.047031615 -0.021867536 0.082766615 -0.08810293
0.038042713 0.08435169 0.08075148 0.050321486 0.113046534 -0.08656056 0.13779338 0.0878862
0.020339604 0.10087397 0.1316142 0.1078233 0.057261 -0.06327009 -0.017746082 -0.013481798
-0.020784006 0.09042176 0.068777174 -0.045414813 -0.010924459 -0.09395037 -0.047759596 -0.0709106
0.06521351 0.046012685 0.03881174 -0.040015798 -0.018254668 -0.029309792 0.026751665 0.14888082
-0.012332951 -0.02606034 -0.046989355 -0.028008735 0.022522317 -0.044103906 -0.032018617 -0.061084
0.011854553 -0.06478975 -0.06723865 -0.089014225 0.002067642 0.0710763 0.13502344 -0.08125818
-0.061621655 0.037052754 0.035111003 0.06041415 0.05771278 0.03659714 0.0007369684 -0.029916737
-0.051467095 -0.06383896 0.09903052 0.07865719 0.051104587 -0.0046596047 -0.0822219 0.050688613
-0.018949505 0.0070128585 0.038398758 -0.13897434 0.045338303 0.010996779 0.013069095 0.07310975
-0.03191062 0.022961458 -0.035694543 -0.060209125 0.024354953 -0.021167781 0.08108791 -0.016462328
-0.015440818 0.004458486 0.027737392 0.041344464 -0.054634392 -0.04359189 0.06000936 -0.017176485
0.07800226 -0.03733063 0.080624595 -0.073580064 0.043115545 0.017728388 -0.086798 0.01034922
-0.04856416 0.036676295 0.034342464 -0.06942 -0.07789212 0.030616611 -0.085111655 -0.05236817
-0.07913941 -0.01295851 0.102773115 -0.0007446125 0.016964782 -0.0477123 -0.02336241 0.0052423407
0.08309627 -0.07352298 0.0662925 0.013095794 0.020401465 -0.06720494 0.016985588 -0.0068312795
-0.03298463 -0.111464076 -0.07992417 -0.07532756 0.07259573 -0.016015962 -0.08032888 0.0603505
-0.0819769 0.034289718 -0.039012104 0.07006007 -0.070953295 0.09561524 0.079170905 -0.049107544
-0.068546236 -0.068969004 -0.0038447971 0.003988952 -0.046929095 0.08166391 0.07779792 -0.038747374
0.061265066 -0.0139524825 0.029375155 -0.0120101655 -0.059999518 -0.0038518405 -0.07733159 0.028279785
0.10666568 -0.050833527 0.03325143 0.094221435 0.076396845 -0.024358595 -0.026584072 -0.026624663
-0.05164019 0.013864286 0.03965205 -0.07946603 0.042127863 0.024664972 0.094101466 0.06858506
0.0062969658 -0.020302517 -0.027249558 0.06787223 0.03411307 0.069721565 0.11057889 0.1302583
0.065012954 0.05933673 0.07442211 -0.0053863693 0.08403355 0.10875727 -0.024062337 0.022252651

module.linear2.bias f4 [84]
00000000: 75e5 883d be9c 2dbc 05f2 5537 dd5e 363d
00000010: c592 54bd bea2 b43d 8af4 dc3d ff12 9dbc
00000020: deff 9d3d b998 0ebd 5b55 06bd a919 50bd
00000030: 5aff cc3c 0190 95bd 2fd1 23bc 045e 263d
00000040: 18ec b23c 4ea0 b5bd ef64 813d 7ad2 b9bd
00000050: b1fe cc3c 836d ce3d 3f86 ef3a 7e66 323d
00000060: 6e27 a0bd 50e9 823d fc68 e03c 35a0 633c
00000070: 88ea 5fbd 3e37 8cbd be98 57bd 27cc 9abc
00000080: 6d5c 983d 5798 373b e4b8 b93d 71c3 073d
00000090: be0f 1c3d 775b adbd 7f7f 60bd a15c 9abd
000000a0: 6a6d b43d 26c6 9c3d b05e b53b d5f2 86bd
000000b0: db61 8cbd 884e 183d 2d0f c33d 6350 4cbc
000000c0: 9a7d 07bd 78fe 4ebd a60c 5b3d 4110 92bc
000000d0: fe78 f43c ae2f cc3c de7b a03c 4539 b2bd
000000e0: ead6 16bd 0f47 813d 3278 88bc 1582 a43d
000000f0: cd6e 51bd 4dda fa3d 054e cd3c e7f0 89bc
00000100: f948 f838 b965 343d 28a7 9fbc d3bd 23bd
00000110: e547 2cbc b61c 9d3d 5fe9 293d a9ac d03d
00000120: 8632 583d d75c 273d 1654 2f3d e9ab 71bd
00000130: a922 f63c e069 b8bd 963f 963d f7bb 5e3c
00000140: e887 9bbd 0cc3 883d 1415 673c 27b3 b6bd
0.066843905 -0.010596452 1.2752139e-05 0.044524062 -0.051897783 0.08820103 0.107888296 -0.019174097
0.077148184 -0.034813616 -0.032796245 -0.05080572 0.025024105 -0.07302857 -0.009998604 0.040617004
0.021841094 -0.08868466 0.0631808 -0.09073348 0.02502379 0.100794815 0.0018274261 0.043554775
-0.078200206 0.06392157 0.02739381 0.013893177 -0.054667026 -0.06846474 -0.0526359 -0.018896176
0.07439504 0.0028014386 0.09068468 0.03314537 0.03810095 -0.08464711 -0.05480909 -0.07537199
0.088099316 0.07654981 0.0055349693 -0.06589285 -0.06854602 0.03718427 0.09524379 -0.012470338
-0.033078767 -0.05053565 0.05347886 -0.017830016 0.02984285 0.02492508 0.019590314 -0.087023295
-0.03682605 0.063123815 -0.016658876 0.08032624 -0.05113106 0.12248669 0.025061617 -0.016838504
0.00011839154 0.044042323 -0.019488886 -0.039975952 -0.010515188 0.07671492 0.041482326 0.10189182
0.052782558 0.040860023 0.0428048 -0.059001837 0.030045824 -0.09004569 0.07336347 0.013594619
-0.075942814 0.06677827 0.0141041465 -0.08920889

module.linear3.weight f4 [10, 84]
00000000: e229 57bd 324b 823d 87f8 bc3d 037d 21be
00000010: 7970 9a3d dcd2 2a3e 2007 083e f585 73bd
00000020: dc04 9cbb e6d6 67bd 340e 813d 148c 813e
00000030: 6581 dbbd 9e28 8cbd 1af4 df3d 20f1 d0bd
00000040: 7ee0 a1bd 7024 9a3d cb47 20bd 9c17 aabc
00000050: 8fb5 6c3d f92f 88be d272 cbbd f8da 803d
00000060: b455 7f3d a056 75be b7cb 533c 866e 183e
00000070: bcd0 f43c a1ac f83d 88e9 9f3d 67bf 16bd
00000080: a09f 56be 70b9 4d3d 78a9 753d 1ed1 ab3d
00000090: 85bb 78bd 33fe c1bd f44a ffbd ca6c a83c
000000a0: 48ff a1be 00d1 47be c130 4b3e 3ed1 ce3d
000000b0: eaeb 33be 6cdd 5b3c bab9 32bc 2d49 40bd
000000c0: 1eda 9cbd d89b 43be 35cc 44bd 38c7 c1bd
000000d0: 212f 59bd 42a1 0c3c 8aaa 14be 204c 38be
000000e0: 7c56 d7bd 5852 493e 3255 e53d 331b d43c
000000f0: c5c4 f3bc 9118 09be f167 86bd 4920 06be
00000100: 9213 c43d 3454 293d 2d2a 8c3e 7279 a9bd
00000110: e975 48be a117 8c3c da4f 653e 13cd 503e
00000120: d23e 643e 954f e23d f4de 2b3e 2d5c 89bb
00000130: d382 19be 82aa b4bd 1e38 8dbd e2e8 92bd
00000140: d24a a03d fc15 973d fe16 80be 1a60 a13c
00000150: cf9f 843e f5b0 f9bd 2624 293c 4eea 7a3e
00000160: 3f17 d53d 7415 9e3e 0c86 f8bc 9cf1 653b
00000170: 05cc 793d ee68 5ebc bde7 bb3d 7e55 7abd
00000180: c19a cd3d d371 9fbd 0490 d43c 5ef8 01be
00000190: 8fe4 61bc 3d26 5e3d 524a 873e 7126 543e
000001a0: fc96 3a3e 63e8 c43d 3942 1e3e 059a d8bc
000001b0: c48f d3bd 5838 5d3e b410 113e cf68 80be
000001c0: c9d2 8cbd e5dd a43d db34 25bd 02fc 55bd
000001d0: 6ead 4b3e 1de6 04be d2b6 0d3c 3c42 ae3e
000001e0: 356d 47be 10ef 0ebd 75f9 a7bd 27c4 88be
000001f0: faff 123e 0204 48bd 256d 893d e718 5dbc
00000200: 80cb 29be 59e6 0bbe b36b e83b 3fb7 debd
00000210: 7665 d0bb d159 023d cb7d 163c 0d0d 17bd
00000220: a416 ae3c 7f2d b13d 6953 f9bd dab3 4bbc
00000230: 999d 77bd 077d 783e 13e3 47be f3b8 823c
00000240: 5756 143e 0acf 863d 84bb 9dbd 6229 bc3d
00000250: f14a a63d fac5 87bd 6196 c2bd 728f 70bb
00000260: c90a 03be 21c3 7dbe 2f44 abbd ad51 97be
00000270: cf45 a43b f69a 1dbe 2af8 4ebe 77aa 0a3d
00000280: e05d 28be 8bc9 523d 5fa1 273e 8110 e93d
00000290: a5b0 45be 877d dfbd 005e c63d c150 ea3d
000002a0: 6fd0 a2bd 506d 083d bdea 8b3c f9cb 6ebd
000002b0: 8e5c a9bd fa37 08be 3867 87be 7c56 fd3c
000002c0: 93b9 143e c77f d1bd f55c d0ba f967 c83d
000002d0: 97d6 833d 3a4d e7bd f1fb 413a 9c52 2e3d
000002e0: d4b9 693d 7184 553d c803 98bc 7847 fabd
000002f0: 4a4c 8dbe 3a8e 81be cac1 bf3d 9bd5 84bd
00000300: 05c9 f63d 55b1 093c 5eb8 51be 858c 0fbe
00000310: 04b0 aebd ba19 dfbd ab77 4ebd 3cbc aabd
00000320: 8627 d6bd f0db 80bd 7c7a 5dbe bebd 2a3e
00000330: 4a5d 10be fdf7 563d 2d33 ba3d 5a8d 90bd
00000340: 1bc9 163e 7a68 5d3e 6bf0 a03e 9877 87bd
00000350: 9f94 303e d7b2 f1bd 9654 87bd 81d9 52bc
00000360: 06e1 90be 738d 673d fbd1 593e 5689 db3d
00000370: 4190 113d b89f 09bc 9ba3 2a3e dbce 4fbe
00000380: d447 9fbd 7eca 283e 9530 783e b324 4f3d
00000390: 14a6 c7bd 9bf7 86be e77a b0bd 0584 cdbd
000003a0: dace 7b3d 9cdd d83b 47da 24be 9c19 ab3e
000003b0: d104 9f3d ad31 5c3d f2ae f03d bff9 b6bd
000003c0: 473e 1bbe 528c 923d 40cc 243e d04c 98bd
000003d0: c7a7 f63c 674b f33c 084a 97bd 4587 253e
000003e0: 9c5a 2f3e bd3c 463c 2179 353d 4387 00be
000003f0: 0a7a 9abd 9a80 423e 32af 5c3e cf22 10be
-0.052530177 0.063619986 0.0922709 -0.15770344 0.07540984 0.16681999 0.13283968 -0.059453923
-0.0047613215 -0.056601427 0.06301537 0.25302184 -0.107180394 -0.068436846 0.109352306 -0.10202241
-0.079041466 0.07526481 -0.039130967 -0.020763211 0.057790335 -0.265991 -0.099340096 0.06291765
0.062337592 -0.23958826 0.012926987 0.14885911 0.029884689 0.12142301 0.078082144 -0.03680363
-0.2095933 0.050225675 0.05997607 0.08389495 -0.060725708 -0.09472313 -0.12465468 0.020559687
-0.31640077 -0.19513321 0.19842817 0.100985035 -0.17570463 0.01341949 -0.0109085385 -0.046944786
-0.0765879 -0.19102418 -0.04804631 -0.09461826 -0.05302346 0.008583369 -0.1451818 -0.1799779
-0.105145425 0.19660318 0.1119789 0.025891876 -0.029756913 -0.13388278 -0.06562794 -0.13098253
0.09574045 0.041340068 0.27375928 -0.08275117 -0.19576229 0.01710111 0.22393742 0.2039073
0.22289589 0.11050335 0.16784269 -0.0041918964 -0.14991312 -0.08821584 -0.06895469 -0.07173325
0.07826771 0.0737724 -0.25017542 0.019699145 0.25903174 -0.12191955 0.01032356 0.24503443
0.104048245 0.30875742 -0.030337356 0.0035086637 0.060985584 -0.013574822 0.0917506 -0.061116688
0.100392826 -0.07785382 0.025947578 -0.12692401 -0.013787403 0.054235686 0.2642389 0.20717789
0.18221658 0.09614637 0.1545495 -0.02644063 -0.103301555 0.21603525 0.14166528 -0.25079963
-0.068761416 0.080501355 -0.04033361 -0.052242287 0.19890377 -0.12978406 0.008649545 0.34034908
-0.19475253 -0.034895957 -0.08201877 -0.26712152 0.1435546 -0.048831947 0.06710271 -0.013494707
-0.16581535 -0.1366209 0.007092917 -0.10874795 -0.0063597513 0.031823937 0.009185265 -0.03687768
0.02125103 0.08651256 -0.12174112 -0.012433017 -0.06045303 0.24266444 -0.19520216 0.015957331
0.14486061 0.06582458 -0.077017814 0.09187581 0.08119763 -0.06629558 -0.09501339 -0.0036706594
-0.12797083 -0.24781467 -0.08362614 -0.295545 0.0050132046 -0.15391144 -0.20211855 0.033853974
-0.1644206 0.051461738 0.16370152 0.11380101 -0.19305666 -0.10912614 0.09685898 0.11441184
-0.07949912 0.033307374 0.017079705 -0.058299992 -0.082696065 -0.13302603 -0.26445937 0.030925028
0.14523916 -0.1022945 -0.0015896844 0.09785456 0.06437414 -0.11294027 0.0007399908 0.04255925
0.057061985 0.05212826 -0.01855649 -0.12220663 -0.27597266 -0.25303823 0.09363134 -0.064860545
0.1205006 0.008404096 -0.20480487 -0.14018448 -0.08529666 -0.10893579 -0.050407093 -0.08336684
-0.10456757 -0.0629195 -0.21628755 0.16673943 -0.14098087 0.052482594 0.09091792 -0.07058211
0.14725153 0.21621886 0.31433424 -0.066146076 0.17244194 -0.11801689 -0.0660793 -0.01286924
-0.2829668 0.05653138 0.21271507 0.10719554 0.035537962 -0.008399896 0.16663973 -0.20293753
-0.07777372 0.16483495 0.24237283 0.05057211 -0.09748474 -0.26360783 -0.08617192 -0.10034946
0.061476566 0.006618215 -0.16098891 0.33417976 0.077645905 0.053758312 0.11752118 -0.08934354
-0.15160476 0.0715567 0.1609354 -0.07436526 0.0301093 0.02969904 -0.07387167 0.16164882
0.17124408 0.012099442 0.04430497 -0.12551598 -0.07542808 0.1899437 0.21551207 -0.14075778

module.linear3.bias f4 [10]
00000000: 6605 21bc 781f 2c3e a60e edba 8b87 cebc
00000010: 125e ef3b 6685 b53c a5c0 a2bd 3568 b9bd
00000020: 0ac0 0cbd 6d9e c3bd
-0.009827947 0.1680888 -0.0018086031 -0.025211116 0.007304915 0.022158336 -0.079469 -0.09053079
-0.03436283 -0.09551702
