Task2/models/cnn-parrallel-False.pth (torch, 285920 bytes, 10 tensors)

conv1.weight f4 [6, 1, 3, 3]
0	0xbd0266a9	-0.031836186
1	0xbf403bb4	-0.750911
2	0xbf4ba8fe	-0.79554737
3	0x3ef5a3d1	0.47976544
4	0x3e5eb989	0.21750464
5	0xbe9e2ff9	-0.30895975
6	0x3e8c8668	0.27446294
7	0x3f3d5d80	0.73970795
8	0x3ed8344f	0.42227408
9	0xbf04928b	-0.51786107
10	0x3e3af58b	0.1825773
11	0x3f0548bc	0.5206411
12	0xbe3b3775	-0.18282874
13	0xbd63b249	-0.055589948
14	0x3ea5fc8a	0.32419235
15	0xbe96daf0	-0.2946391
16	0x3f0cc3e3	0.549864
17	0x3e8fd878	0.2809484
18	0x3f3bcad1	0.7335635
19	0x3ed70a27	0.41999933
20	0xbee025db	-0.4377888
21	0x3f377e87	0.7167744
22	0xbe10ca00	-0.14139557
23	0xbf1c0399	-0.6094299
24	0x3f271427	0.65265125
25	0x3f007aad	0.5018719
26	0x3dbdb68a	0.09263332
27	0xbe79e26e	-0.24402782
28	0xbea972cc	-0.33095396
29	0x3d8bf11d	0.06833098
30	0xbee7da7e	-0.45283884
31	0xbe148cc6	-0.14506826
32	0xbee90954	-0.4551493
33	0xbe3593a9	-0.17732109
34	0xbda923c1	-0.08258773
35	0xbde5228e	-0.111882314
36	0x3ec39e10	0.3820653
37	0x3e8d1da6	0.27561682
38	0x3e8a7375	0.27041212
39	0x3dcb64c9	0.099313326
40	0x3d919fb1	0.07110537
41	0x3f1e5a10	0.61856174
42	0xbeaeae91	-0.3411756
43	0xbee8addb	-0.4544514
44	0x3e97381c	0.29534996
45	0x3e948a50	0.29011774
46	0xbd5396ee	-0.05165761
47	0xbe18f5c5	-0.14937504
48	0x3e8df3ee	0.27725166
49	0x3f1514e5	0.5823501
50	0x3f3ffb31	0.7499266
51	0x3f26adcc	0.65108943
52	0x3f496f8a	0.7868582
53	0x3e82393d	0.25434294

conv1.bias f4 [6]
0	0xbb043f80	-0.002017945
1	0xbe72349c	-0.23652881
2	0xbe5703b9	-0.20997514
3	0x3f174ee7	0.5910477
4	0x3dc8b302	0.09799768
5	0x3eebf332	0.4608398

conv2.weight f4 [10, 6, 3, 3]
0	0x3d104a1f	0.035226937
1	0x3e698cb7	0.22807585
2	0x3d1c5e7c	0.038176045
3	0xbd01e95e	-0.031716697
4	0x3cc50975	0.024052361
5	0xbdadbbdc	-0.08483097
6	0x3cb95092	0.022621427
7	0xbd6b1454	-0.057392433
8	0xbd8ff4f6	-0.070291445
9	0x3dfa1f6d	0.12213025
10	0xbbfe12e5	-0.0077537172
11	0x3d7e0343	0.06201483
12	0x3d99acaf	0.0750364
13	0x3e167d82	0.14696315
14	0xbdc0df4d	-0.09417591
15	0x3df4c865	0.11952285
16	0x3e26e3d7	0.16297852
17	0xbe0f6e21	-0.14006855
18	0xbe0c1a18	-0.13681829
19	0x3ebba115	0.36646333
20	0xbce75319	-0.028237866
21	0xbe5bf4ff	-0.21480177
22	0x3dbc1a5b	0.091847144
23	0x3e52be59	0.20580424
24	0xbd66a5fd	-0.056310643
25	0xbe1400bd	-0.14453407
26	0x3dac9149	0.084261484
27	0xbdaac2bf	-0.08337926
28	0xbe423a52	-0.1896756
29	0xbe16c033	-0.14721756
30	0xbb8dc612	-0.0043265903
31	0xbd3ddee0	-0.04635513
32	0xbdeaf736	-0.11472933
33	0x3c33fc83	0.010985496
34	0xbdf337ca	-0.11875875
35	0xbd03c40e	-0.032169394
36	0x3e74f3df	0.23921154
37	0x3a365022	0.000695469
38	0xbd7b4b07	-0.06135085
39	0x3e1aa66e	0.1510255
40	0x3c908250	0.017640263
41	0xbd79ee3d	-0.061018217
42	0xbe67ee27	-0.22649442
43	0xbd3fa2c1	-0.046786074
44	0x3d514e37	0.051099982
45	0x3dbc76f6	0.092023775
46	0x3dbdf4a4	0.09275177
47	0xbd37a54e	-0.04483538
48	0xbe9cb2e4	-0.30605233
49	0x39c0b43e	0.00036755385
50	0x3e16580f	0.14682029
51	0xbe3a9ebd	-0.18224616
52	0x3d71cac5	0.059031267
53	0xbdc05c44	-0.09392598
54	0xbdcd9e71	-0.10039986
55	0x3db286c2	0.08717109
56	0xbe66a8ad	-0.22525282
57	0x3cc11204	0.02356816
58	0xbde58ba9	-0.11208279
59	0xbe93cd93	-0.28867778
60	0xbd95762c	-0.0729793
61	0xbe88f3d6	-0.26748532
62	0xbe81e409	-0.2536929
63	0xbd8ed8c2	-0.06974937
64	0x3a686cda	0.0008866318
65	0x3e84b324	0.25917923
66	0x3d9924ac	0.07477698
67	0x3d601408	0.054706603
68	0x3d027855	0.03185304
69	0x3d58ba37	0.052911963
70	0x3bde79e4	0.006789433
71	0xbe47e654	-0.19521457
72	0xbe197953	-0.14987688
73	0xbe64b952	-0.22336319
74	0xbd9d91f3	-0.07693853
75	0xbe5b8304	-0.21436697
76	0x3d19ad4f	0.037518796
77	0x3e1c8c71	0.15287949
78	0x3de99bea	0.11406691
79	0x3e13a206	0.14417276
80	0x3db07617	0.08616274
81	0xbdd6722c	-0.10470995
82	0xbd8d24c3	-0.06891777
83	0x3d10856e	0.0352835
84	0xbc84284c	-0.016132496
85	0xbe3ec615	-0.1863025
86	0xbdba0185	-0.09082321
87	0xbdeee5b2	-0.11664905
88	0xbdd16a5e	-0.10225366
89	0xbcd8bba6	-0.026456665
90	0xbdc3341a	-0.09531422
91	0xbde4a74c	-0.11164722
92	0xbdeadff1	-0.11468495
93	0xbe163a5d	-0.14670701
94	0xbd743368	-0.059619337
95	0x3e0e6623	0.1390615
96	0x3dbfbc0c	0.09362039
97	0x3e674c8b	0.22587793
98	0xbd9d6f4b	-0.07687243
99	0xbe20ab90	-0.15690446
100	0x3cd3c365	0.025850007
101	0x3e573214	0.21015197
102	0x3e5bfa56	0.21482214
103	0x3ef0d1b4	0.4703499
104	0x3e9f4193	0.31104717
105	0x3ec17b87	0.37789556
106	0xbe067f50	-0.13134503
107	0xbe80b004	-0.2513429
108	0x3dd2a104	0.102846175
109	0x3e196994	0.14981681
110	0x3e4b348f	0.19844268
111	0x3e7c73dc	0.24653572
112	0x3e8cbc8f	0.2748761
113	0x3e25854f	0.16164134
114	0xbd7909e6	-0.060800456
115	0xbd20b942	-0.039239176
116	0x3e0f57c2	0.1399832
117	0xbe2cc294	-0.168711
118	0xbdc4022b	-0.09570726
119	0xbe11a14c	-0.14221686
120	0xbe5db9f5	-0.21652968
121	0xbe54432b	-0.20728748
122	0xbd46cb5e	-0.04853379
123	0xbc3352c6	-0.010945028
124	0x3c294074	0.010330308
125	0xbd95acd3	-0.07308354
126	0x3da2f909	0.07957656
127	0x3af5681f	0.0018723047
128	0xbddfd48d	-0.10929213
129	0x3e04b92d	0.12961264
130	0x3daf84d3	0.08570256
131	0x3dc996ce	0.09843217
132	0xbeafd77d	-0.34344092
133	0xbe16f94b	-0.14743535
134	0xbd329f35	-0.043608863
135	0xbde119c4	-0.109912425
136	0xbe06349a	-0.13106003
137	0x3dc40061	0.09570385
138	0xbe044f80	-0.12920952
139	0xbe5d4aa6	-0.21610507
140	0xbcdebabb	-0.02718865
141	0x3e068901	0.131382
142	0xbd2b46ba	-0.041815497
143	0xbcd06045	-0.02543653
144	0xbdd0447e	-0.10169314
145	0xbd444f70	-0.04792732
146	0xbd979d73	-0.07403078
147	0x3ec9fcfc	0.39450824
148	0x3eaee121	0.34156135
149	0x3cb56b3e	0.022145864
150	0x3e64e969	0.22354664
151	0x3e82cf12	0.25548607
152	0x3df27bea	0.11840041
153	0xbd2b4005	-0.0418091
154	0x3d5cf899	0.05394802
155	0xbe2699b2	-0.16269568
156	0x3ea191ae	0.31556457
157	0x3ea57163	0.3231307
158	0x3e81aab1	0.2532554
159	0xbefe15df	-0.4962606
160	0xbdf55ac4	-0.11980203
161	0xbcbecc65	-0.023290822
162	0x3e795ca0	0.2435174
163	0x3c716333	0.014733124
164	0x3e202126	0.15637645
165	0x3e579837	0.21054159
166	0x3e9ff8e3	0.31244573
167	0xbd1e72d9	-0.038683746
168	0x3e29463c	0.16530699
169	0x3e748a68	0.23880923
170	0x3e10516d	0.14093561
171	0x3df7581a	0.12077351
172	0xbce345fc	-0.027743332
173	0x3ddabace	0.106801614
174	0x3debc4ba	0.11512132
175	0xbe085711	-0.13314463
176	0x3d9bcb2a	0.0760711
177	0xbe356d8a	-0.17717567
178	0xbdd5c799	-0.10438461
179	0xbda9da16	-0.0829355
180	0x3de9bd6a	0.11413081
181	0x3dba7444	0.09104207
182	0xbdb838bb	-0.089951955
183	0x3d9449e4	0.07240656
184	0x3edabd33	0.42722473
185	0xbcdbec7d	-0.026846165
186	0xbc6e5a85	-0.014547949
187	0x3cf22ee3	0.029563373
188	0x3e315be0	0.17320204
189	0xbe84e7c5	-0.25958076
190	0xbd8763b5	-0.066108145
191	0xbd8e6397	-0.06952589
192	0xbea36fb3	-0.31921157
193	0xbe2932a2	-0.16523221
194	0xbe45ab55	-0.19303639
195	0xbd84d9dc	-0.06486866
196	0xbe8d137a	-0.27553922
197	0xbdfc37eb	-0.12315353
198	0xbb405527	-0.002934763
199	0xbde00ba3	-0.109397195
200	0xbcbd5e4a	-0.02311625
201	0x3e0a064a	0.13478962
202	0xbdeea97e	-0.11653422
203	0xbdacc06c	-0.08435139
204	0x3d37cfc6	0.044875883
205	0x3d89a7de	0.06721471
206	0x3dd558a4	0.104172975
207	0x3d1e26c7	0.0386112
208	0xbe44e4e7	-0.19227944
209	0xbe484a67	-0.19559632
210	0xbcf66db7	-0.030081613
211	0xbb95ecca	-0.0045753466
212	0xbdf8a012	-0.12139906
213	0x3de24ce7	0.11049824
214	0x3e9095e9	0.28239372
215	0x3e3a6903	0.18204121
216	0xbdd11886	-0.102097556
217	0xbdc0ae7e	-0.09408282
218	0x3c92a66d	0.017901624
219	0x3dc58283	0.09644034
220	0x3cffd011	0.031227143
221	0xbd9b08e5	-0.07570056
222	0x3d8d13c7	0.06888538
223	0xbd8d458b	-0.0689803
224	0xbd95f604	-0.073223144
225	0xbdca7a55	-0.09886614
226	0x3d3c78bb	0.046013575
227	0x3e3e0c8e	0.18559477
228	0x3dda85e9	0.106700726
229	0xbe003dfd	-0.12523647
230	0x3e88f599	0.26749876
231	0x3dd02940	0.10164118
232	0x3d943c5c	0.07238075
233	0x3e494d85	0.19658478
234	0xbd51471f	-0.051093217
235	0xbdd0c416	-0.101936504
236	0xbdf0906d	-0.11746297
237	0x3e9a74b2	0.30167156
238	0xbd7aeb21	-0.061259393
239	0xbe297d58	-0.16551721
240	0x3ea5df37	0.32396862
241	0xbe3d1c1d	-0.18467756
242	0xbd318b9e	-0.04334604
243	0x3d72ef95	0.059310514
244	0x3bbce1a5	0.0057642036
245	0xbdb166eb	-0.08662208
246	0x3e0fd564	0.14046246
247	0x3d83c7eb	0.06434616
248	0xbd006cad	-0.03135364
249	0xbe013df6	-0.12621292
250	0xbcf5b410	-0.029993087
251	0x3dd66c58	0.10469884
252	0xbe1681f6	-0.14698014
253	0xbd538b6e	-0.051646642
254	0x3e2738b0	0.16330218
255	0xbde5a0d5	-0.11212317

conv2.bias f4 [10]
0	0xbda85c00	-0.082206726
1	0x3d984faf	0.074370734
2	0x3dc5f366	0.09665565
3	0x3cd70149	0.02624573
4	0xbddd959b	-0.108195506
5	0xbd7a44b6	-0.061100684
6	0x3ba37605	0.0049884343
7	0xbda978cb	-0.082749926
8	0xbde25d07	-0.110529
9	0x3e0758ad	0.13217421

linear1.weight f4 [120, 490]
0	0x3c7c8e72	0.015414821
1	0xbc6a8731	-0.014314459
2	0xbb84e4cd	-0.0040555955
3	0x3cb8c94e	0.022556927
4	0xbd1b5eb7	-0.037932124
5	0xbc1ebadf	-0.009688108
6	0xbd3934e4	-0.045216456
7	0x3d11ee4a	0.03562764
8	0x3c26c527	0.010178841
9	0xbbd42429	-0.006474037
10	0xbd072fad	-0.03300445
11	0xbd54e7d1	-0.05197889
12	0xbd18d3ac	-0.03731124
13	0x3cd923ac	0.026506267
14	0xbb4018c5	-0.0029311639
15	0xbca9b2e6	-0.020715188
16	0x3c85ba9a	0.01632433
17	0xba13ab03	-0.0005633088
18	0xbd81e0aa	-0.063416794
19	0x3c709354	0.014683563
20	0x3d1e3025	0.038620133
21	0xbd3c994e	-0.04604464
22	0xbc7b9c34	-0.015357066
23	0xbd5bc9d7	-0.053659286
24	0xbcaf4a83	-0.021397835
25	0x3ca24fca	0.019813437
26	0xbcfb16d3	-0.030650532
27	0xbd2146b7	-0.03937408
28	0x3d01b796	0.03166922
29	0xbd35b97e	-0.044366352
30	0xbc932a5c	-0.017964534
31	0xbd2975e9	-0.041372214
32	0xbd2d48bc	-0.042305693
33	0xbbc51a11	-0.0060150702
34	0x3d159c32	0.036525913
35	0x3d14798a	0.03624872
36	0x3cd36dee	0.025809254
37	0xbcfebccc	-0.031095885
38	0xbca7f7bb	-0.02050387
39	0x3ccd23bc	0.025041454
40	0x3c7b34a9	0.015332379
41	0x3b8d8536	0.0043188585
42	0xbb82994e	-0.0039855605
43	0x3c9084b4	0.017641403
44	0xbc475500	-0.012166262
45	0x3cbe688a	0.023243207
46	0x3cb92d39	0.022604572
47	0xbc909b7b	-0.017652264
48	0xbc6156f0	-0.013753638
49	0x3d33db56	0.043910347
50	0xbd101494	-0.035175875
51	0xbd75cf40	-0.060012102
52	0xbd8d5409	-0.06900794
53	0xbcbb9218	-0.022896811
54	0x3ca776f8	0.02044247
55	0xbcd0d46d	-0.025491918
56	0xbc3e6e31	-0.011622951
57	0xbcdae0a0	-0.026718438
58	0xbd05359d	-0.032521833
59	0xbb0695fc	-0.0020536175
60	0x3de10f0d	0.10989199
61	0x3e170e08	0.14751446
62	0x3cec568b	0.02884986
63	0xbb496976	-0.0030733026
64	0xbd856a3f	-0.065144055
65	0x3cabfb84	0.020993955
66	0x3d294323	0.041323792
67	0xbd5d5b61	-0.054042224
68	0xbd826171	-0.06366242
69	0x3c1495df	0.009068935
70	0xbd5fe857	-0.054664936
71	0x3c8ef30d	0.01744988
72	0x3d096ca3	0.03355087
73	0xbd39e0de	-0.045380466
74	0xbd91f8ab	-0.07127508
75	0xbcbdce3e	-0.023169633
76	0x3ca5d242	0.02024186
77	0xbcffb51c	-0.03121429
78	0x3d0dfe29	0.034666214
79	0x3d4c71a3	0.04991306
80	0x3d8f8f07	0.07009702
81	0xbc39aa4b	-0.011332105
82	0xbca6825b	-0.02032583
83	0xbc588c5a	-0.013217056
84	0xbcc5aa8c	-0.024129175
85	0x3d1f296f	0.038857874
86	0x3d98b209	0.074558325
87	0xbd761150	-0.060075104
88	0x3cb17529	0.021662312
89	0xbd1854e9	-0.03719035
90	0xbcda32c2	-0.026635531
91	0xbcf78781	-0.03021598
92	0x3cb7d046	0.02243818
93	0x3cbebf4f	0.023284582
94	0xbd048f1a	-0.032363035
95	0xbceb5198	-0.02872543
96	0xbc80806d	-0.015686238
97	0xbca879f1	-0.020565959
98	0xbb926699	-0.004467797
99	0xbd2cb20d	-0.04216199
100	0xbc3f31b6	-0.011669567
101	0xbcc6ad1f	-0.024252472
102	0xbd1a64c1	-0.037693743
103	0xbc5c6090	-0.013450757
104	0xbc96fd4a	-0.018431325
105	0xbc3a8520	-0.011384279
106	0x3b381515	0.0028088738
107	0xbd58320a	-0.052782096
108	0xbd2e4750	-0.042548478
109	0xbc638201	-0.013885976
110	0x3d74bd9b	0.059751134
111	0x3d450adb	0.048106056
112	0x3cf7445a	0.03018396
113	0xbc9d48ea	-0.019199807
114	0x3c599e6a	0.013282398
115	0x3d050537	0.032475676
116	0xbb9ac1a8	-0.0047227927
117	0x3c0c9059	0.008579337
118	0x3d6030b2	0.05473394
119	0xbd07d37d	-0.033160675
120	0xbd2306b3	-0.03980131
121	0xbd4aa786	-0.04947617
122	0xbd5cc247	-0.053896215
123	0x3bab03af	0.005218945
124	0xbd81280e	-0.06306468
125	0xbc9cb870	-0.019130915
126	0xbd280650	-0.041021645
127	0xbc6daf9d	-0.0145072015
128	0xba3e204f	-0.0007252739
129	0xbd2d2ac1	-0.0422771
130	0xbd49a1cd	-0.04922657
131	0xbd3853d3	-0.045001816
132	0xbd0ea12c	-0.034821674
133	0x3d035da6	0.032071732
134	0x3ccc3f2c	0.024932466
135	0x3d2740c6	0.040833257
136	0x3d04d1e5	0.032426734
137	0xbd108002	-0.035278328
138	0x3d274f08	0.040846854
139	0xbd49f13e	-0.049302332
140	0xbcb26a4d	-0.021779204
141	0xbd20d6e9	-0.039267454
142	0x3c9a7f70	0.018859595
143	0xbc09b4dd	-0.008404938
144	0xbcee6edc	-0.029105596
145	0xbd0f4413	-0.03497703
146	0xbcc9fe4a	-0.024657387
147	0xbc459a1e	-0.01206067
148	0xba5dba41	-0.0008458235
149	0x3c89a1e7	0.016800834
150	0xbd2ccd02	-0.0421877
151	0xbc26f1ad	-0.010189456
152	0xbc95c92a	-0.018284399
153	0xbbbd45a6	-0.005776125
154	0x3d28ff8c	0.041259333
155	0x3b5423ef	0.003237005
156	0xbce0c61c	-0.027438216
157	0x3c710b4d	0.014712167
158	0x3d111920	0.03542435
159	0x3d378fe2	0.04481495
160	0x3cd57fa8	0.026061848
161	0xbd218226	-0.03943076
162	0xbd67bfb9	-0.056579325
163	0xbd649da2	-0.055814393
164	0x3cdbdd46	0.02683891
165	0xbc6f9fbb	-0.014625485
166	0xbd305e8b	-0.043058913
167	0xbcb97e86	-0.022643339
168	0xbcaaa8f2	-0.020832513
169	0x3d017035	0.03160115
170	0xbc868aa9	-0.01642354
171	0x3c1762a3	0.009239825
172	0x3c0e3bd6	0.008681258
173	0xbb8c1ce4	-0.004275905
174	0xbd1f651d	-0.03891479
175	0xbd321eb6	-0.04348632
176	0x3d149e3b	0.036283713
177	0xbc09e3ce	-0.008416129
178	0xbd230816	-0.039802633
179	0xbc629c50	-0.013831213
180	0x3c52e359	0.012871587
181	0xbc691f21	-0.014228613
182	0x3c1b4948	0.009477921
183	0xbbdb0f4c	-0.006685173
184	0xbd33cb7e	-0.043895237
185	0x3cdd4666	0.027011108
186	0xbb5e31e9	-0.003390426
187	0xbd033ed5	-0.032042343
188	0xbcd98e12	-0.026557002
189	0x3bab2183	0.005222501
190	0x3c83e081	0.016098263
191	0x3d5b56ba	0.053549506
192	0x3ca4cec7	0.02011813
193	0xbd10ed06	-0.035382293
194	0xbbf742b3	-0.007545793
195	0x3c8fe166	0.017563533
196	0xbd2d2ac5	-0.042277116
197	0x3bd9f8b4	0.006651962
198	0x3cb681ba	0.022278655
199	0x3b17eee2	0.0023183157
200	0x3c799a98	0.015234612
201	0xbc12fcbc	-0.008971389
202	0x3b87007c	0.004119931
203	0x3d18a296	0.03726443
204	0xbca0bf55	-0.019622484
205	0x3ce1ab7c	0.02754759
206	0x3ca2bde2	0.019865934
207	0x3aecea40	0.0018075183
208	0xbd503040	-0.050827265
209	0x3caa1f93	0.020767009
210	0x3cd477f6	0.025936108
211	0xbd16cd20	-0.036816716
212	0xbc39ffbd	-0.011352477
213	0xbd467e82	-0.04846049
214	0xbc9b95e9	-0.018992381
215	0x3cd69243	0.02619279
216	0x3bb61756	0.005556981
217	0xbb34653d	-0.0027526163
218	0xbcd3cd45	-0.025854716
219	0x3cc8cf86	0.024513017
220	0x3c839c93	0.016065871
221	0x3c946c5d	0.018118078
222	0x3bee39e2	0.0072700838
223	0xbd18a8c7	-0.037270334
224	0x3cae7257	0.021294756
225	0x3cbd1119	0.023079442
226	0x3c8f4d87	0.017493023
227	0x3d1fb246	0.038988374
228	0xbd574170	-0.05255264
229	0xbd3c6120	-0.045991063
230	0x3b909f8d	0.004413551
231	0xbc9e9e74	-0.019362666
232	0xbcbd3a2f	-0.023099033
233	0x3d00b2bb	0.03142045
234	0xbbb1a92a	-0.0054217773
235	0x3c746218	0.0149159655
236	0x3c2a4cd9	0.0103942985
237	0xbd02f220	-0.03196919
238	0x3cf8ffd3	0.030395424
239	0xbd105206	-0.035234474
240	0xbc49d82a	-0.012319604
241	0xbc479596	-0.01218166
242	0xbd00d508	-0.031453162
243	0x3cd044fa	0.025423516
244	0xbcbaac2c	-0.022787176
245	0xbc8ca432	-0.017168138
246	0xbc63c64f	-0.013902261
247	0xbcd020f9	-0.025406348
248	0x3c275ae6	0.010214543
249	0x3c0ef709	0.00872589
250	0xbb8c5dbf	-0.0042836363
251	0x3c948341	0.018128993
252	0xbbf0c759	-0.007347983
253	0x3ca6406f	0.020294396
254	0x3d020c8a	0.03175024
255	0xbcbcb606	-0.023036014

linear1.bias f4 [120]
0	0x3d126c25	0.035747666
1	0xbcb20fbf	-0.021736024
2	0xba58e820	-0.00082743354
3	0x3d1c77ee	0.03820031
4	0xbd23c4ed	-0.039982725
5	0xbd00572c	-0.031333134
6	0xbc8bbb3c	-0.017057054
7	0xbcd91b3c	-0.026502244
8	0x3cca4fd0	0.02469626
9	0x3cd93cd7	0.026518269
10	0xbc86a53f	-0.016436217
11	0xbc89e0aa	-0.016830761
12	0xbbb634c7	-0.005560491
13	0xbd1c1f59	-0.038115833
14	0xbc978c31	-0.018499466
15	0x3d2aa44e	0.0416606
16	0xbc9f1061	-0.01941699
17	0x3d167a8b	0.03673796
18	0xbc9b2464	-0.01893825
19	0xbd46626c	-0.048433706
20	0x3a8d7b8c	0.0010794266
21	0xbc569786	-0.013097649
22	0x3d348c28	0.044078976
23	0x3cdb7ef8	0.026793942
24	0x3d3f410b	0.04669289
25	0xbcfe7471	-0.031061383
26	0x3ca183c0	0.019716144
27	0x3b7f77e5	0.0038981375
28	0x3d0a903e	0.033828966
29	0xbcb7615b	-0.02238529
30	0xbcb6cdca	-0.022314925
31	0x3b4353b7	0.0029804537
32	0xbc08643f	-0.008324682
33	0x3c409c6f	0.011756047
34	0xbd151a7d	-0.036402214
35	0xb85906d1	-5.174318e-05
36	0x3cc7a5b9	0.024371015
37	0xbbeb4f13	-0.0071810572
38	0xbc8503b9	-0.016237127
39	0xbc601206	-0.013676172
40	0x3d5e1056	0.054214798
41	0x3bcdb6cd	0.006277895
42	0xbccb9e79	-0.02485584
43	0x3be70278	0.007049855
44	0x3d0eb278	0.03483817
45	0xbc147894	-0.009061951
46	0xbc7c93f1	-0.015416131
47	0xbc45bbc9	-0.012068697
48	0xbb09f27d	-0.0021049075
49	0x3c982f07	0.018577112
50	0x3c7cc7ab	0.015428464
51	0xbc215248	-0.009846278
52	0xbcf896e9	-0.030345397
53	0x3cf1fbbc	0.029538982
54	0xbd2d0d55	-0.042249043
55	0xbd2dc0d6	-0.04242023
56	0xbd1bb440	-0.038013697
57	0x3d39c74b	0.045356076
58	0x3ce79fe3	0.028274482
59	0x3d14c2ff	0.036318775
60	0x3cd0011e	0.025391158
61	0xbb7c8524	-0.0038531506
62	0x3c1b04e8	0.009461619
63	0x3cf2b5ee	0.029627766
64	0xbc29187b	-0.010320778
65	0xbcf78ad2	-0.030217562
66	0x3bc966ce	0.0061462885
67	0x3caabd5b	0.020842245
68	0xbba08ce8	-0.00489961
69	0x3cadc87b	0.02121376
70	0xbca862df	-0.020554958
71	0x3ca466f2	0.02006862
72	0x3a12e5e4	0.00056037144
73	0x3c7ff712	0.015622871
74	0xbca9326d	-0.020653928
75	0x3cf95aa9	0.030438738
76	0x3ce77b44	0.02825702
77	0xbc461796	-0.012090584
78	0x3b07913f	0.0020685939
79	0x3d00a615	0.03140839
80	0xbc0ca887	-0.008585102
81	0xbcc00ae9	-0.023442702
82	0xbc91734d	-0.017755175
83	0x3b43b29b	0.0029861096
84	0xbc53b6d3	-0.012922007
85	0x3d09f54e	0.033681206
86	0x3c245513	0.010030049
87	0xbd0e60b5	-0.034760196
88	0xbbcaa0c3	-0.006183715
89	0xbd04a006	-0.032379173
90	0xbd38beb3	-0.04510374
91	0x3cf7f6db	0.030269077
92	0xbbbeb162	-0.0058194855
93	0x3d04d06c	0.03242533
94	0xbbdf225e	-0.006809517
95	0xbb8dad01	-0.004323602
96	0x3ca2a320	0.019853175
97	0xbd2ed9cd	-0.04268818
98	0x3cc2778b	0.023738643
99	0x3d0c8d49	0.034314428
100	0x3d35f391	0.044421736
101	0xbcc75154	-0.024330772
102	0x3bc1c134	0.005912924
103	0xbd019b3c	-0.031642184
104	0x3c57c9fb	0.0131707145
105	0xbb846e59	-0.004041475
106	0x3c1bf6bf	0.009519278
107	0x3c3d8a4e	0.011568619
108	0x3d1b10e9	0.037857924
109	0x3d019b7f	0.031642433
110	0x3d3d1204	0.04615976
111	0x3d2dbf27	0.042418625
112	0xbc44da9e	-0.012015013
113	0xbceee45f	-0.02916163
114	0xbcac17c0	-0.021007419
115	0xbd1b9472	-0.037983365
116	0xbc83db7c	-0.01609587
117	0x3ae1d19d	0.0017228607
118	0xbd34d439	-0.044147704
119	0xb9263dae	-0.00015853971

linear2.weight f4 [84, 120]
0	0xbd9631a6	-0.073336884
1	0xbd01ff25	-0.031737465
2	0xbdfa0e2f	-0.122097366
3	0xbd19a8c4	-0.037514463
4	0x3d90a741	0.07063151
5	0xbe19210e	-0.14954016
6	0x3ddf37cc	0.10899314
7	0xbe06259a	-0.13100281
8	0x3d88a88a	0.06672771
9	0xbd0b5e59	-0.034025524
10	0xbd9d85b9	-0.07691521
11	0x3dbb2bb7	0.09139197
12	0x3d325a7d	0.043543328
13	0xbd8626a6	-0.0655034
14	0x3d4ade1e	0.049528234
15	0xbc282edc	-0.010265078
16	0xbdc3c0e5	-0.09558276
17	0xbdd47e65	-0.1037567
18	0x3db6793b	0.089098416
19	0xbdac17e8	-0.08402997
20	0xbd2ed04b	-0.042679112
21	0x3d95b754	0.07310358
22	0xbcfcf574	-0.03087876
23	0xbcbe11e5	-0.023201892
24	0xbcdf3858	-0.027248546
25	0xbd8e4ca7	-0.06948214
26	0xbd62011d	-0.055176843
27	0x3c3dfe6e	0.011596305
28	0xbcfc3248	-0.030785695
29	0x3dc37d3d	0.09545372
30	0xbce90ad0	-0.028447539
31	0x3d91a519	0.07111568
32	0xbd9d0bda	-0.07668276
33	0x3d0995f3	0.03359027
34	0x3d3757f4	0.044761613
35	0x3e04b71a	0.12960473
36	0x3db0b681	0.0862856
37	0x3d4398c9	0.04775313
38	0xbdaec4c2	-0.08533622
39	0x3e17c955	0.14822896
40	0xbd832727	-0.06403952
41	0x3d1607da	0.03662858
42	0xbcc292f7	-0.023751719
43	0xbd06d2fe	-0.03291606
44	0xbd2bff50	-0.04199153
45	0xbd0dc11e	-0.034608
46	0x3dbbd9d7	0.09172409
47	0xbdb0647f	-0.08612918
48	0xbba0f048	-0.0049114563
49	0x3d5c2704	0.053748146
50	0x3bfba6e3	0.0076798066
51	0xbd0507f0	-0.032478273
52	0xbc2c37d4	-0.010511357
53	0xbca49e6a	-0.020095069
54	0xbd5c0e40	-0.053724527
55	0xb9f61646	-0.0004693737
56	0x3df575d2	0.11985363
57	0x3c0beee6	0.008540845
58	0xbc9bdf8c	-0.019027494
59	0x3c04c374	0.00810324
60	0x3bf57b38	0.0074914955
61	0x3d11df06	0.035613082
62	0xbdaad15f	-0.083407156
63	0xbd8f499e	-0.06996463
64	0x3bb416eb	0.005495896
65	0xbdd685a2	-0.10474707
66	0x3dd60fe6	0.10452251
67	0xbd820154	-0.063479096
68	0xbd528350	-0.05139476
69	0x391826fc	0.00014510372
70	0x3d02de71	0.031950418
71	0x3dccd36c	0.10001263
72	0x3dd0d1dd	0.10196278
73	0x3c9beb5a	0.019033123
74	0x3c9afa57	0.0189182
75	0xbd50d25d	-0.050981868
76	0x3dc81149	0.09768922
77	0xbd1f14d4	-0.038838223
78	0xbcf2d4f6	-0.029642563
79	0x3d9e399e	0.07725833
80	0xbdb9a730	-0.090650916
81	0x3d362307	0.044467
82	0xbe162687	-0.14663135
83	0x3d1c2bd0	0.03812772
84	0x3d2f28ba	0.04276345
85	0x3dcd1616	0.10013978
86	0x3d1a85b3	0.03772516
87	0xbdc915ed	-0.09818635
88	0x3d487608	0.04894069
89	0xbd548eae	-0.051893882
90	0x3d4bf309	0.049792323
91	0x3c159acf	0.0091311475
92	0xbde9b2a5	-0.11411027
93	0x3ce96710	0.028491527
94	0x3c1e8578	0.009675376
95	0xbc2dc1d7	-0.010605297
96	0x3e078341	0.13233663
97	0x3deecdee	0.11660372
98	0xbc9dfb85	-0.019284973
99	0x3da4e119	0.080507465
100	0x3c15d48d	0.009144914
101	0xbd977263	-0.073948644
102	0xbd3db409	-0.046314273
103	0xbdfb9518	-0.12284297
104	0xbd64b139	-0.055833075
105	0x3d9cc2e5	0.07654361
106	0x3d5672ca	0.052355565
107	0x3d8da63d	0.06916473
108	0x3da0662d	0.078319885
109	0xbdc1ae79	-0.09457106
110	0x3db42f42	0.08798076
111	0x3ddfff9b	0.10937425
112	0xbd3136a9	-0.04326502
113	0x3da3783e	0.07981919
114	0x3de7bbf9	0.1131515
115	0x3d917e6e	0.07104193
116	0x3de7ef3e	0.11324929
117	0xbb8770cd	-0.00413332
118	0xbb970252	-0.004608431
119	0xbdbe1ea2	-0.092831865
120	0x3da2808e	0.07934676
121	0x3d8ffa74	0.07030192
122	0x3d832c72	0.06404962
123	0xbd6eef77	-0.05833384
124	0xbdb498e1	-0.08818222
125	0x3e4805cd	0.19533463
126	0x3d67ec83	0.05662204
127	0xbcc54639	-0.024081336
128	0xbe05b9b5	-0.13059123
129	0xbd66fe6e	-0.056394987
130	0xbd24e649	-0.04025868
131	0x3d098400	0.03357315
132	0x3d88c763	0.06678655
133	0xbbe60db4	-0.0070206765
134	0xba791171	-0.0009501195
135	0x3e0f2bca	0.13981548
136	0x3d0ae458	0.03390917
137	0xbc9464f6	-0.018114548
138	0xbd9713a5	-0.07376794
139	0x3daf1320	0.0854857
140	0x3c981355	0.018563906
141	0x3daa9b7e	0.08330439
142	0x3da95a04	0.08269122
143	0xbd01d28f	-0.031694945
144	0x3d5a4b33	0.05329437
145	0x3b65c7a0	0.0035061613
146	0xbcba906b	-0.022773942
147	0xbda65e67	-0.081234746
148	0x3dacad2a	0.08431466
149	0xbd2fc1a9	-0.042909298
150	0xbc2dced9	-0.010608398
151	0xbd827f36	-0.0637192
152	0xbd063da3	-0.032773625
153	0x3d83cddc	0.06435749
154	0x3de74b17	0.11293619
155	0xbd593a3d	-0.053034056
156	0xbc602173	-0.01367985
157	0x3e0bf8e2	0.1366916
158	0x3ce37160	0.027764022
159	0xbcdb4a2c	-0.026768766
160	0x3dd39915	0.103319325
161	0xbcd6677e	-0.026172396
162	0x3d302468	0.04300347
163	0xbdf1ab9e	-0.118003115
164	0xbc8eb6e8	-0.0174212
165	0x3a9533f2	0.0011383279
166	0xbd5f0775	-0.05445047
167	0xbdb6a078	-0.08917326
168	0xbd2cc7fd	-0.04218291
169	0x3d3cc523	0.04608644
170	0xbe05e46b	-0.13075416
171	0xbe24b220	-0.16083574
172	0x3c75d85b	0.015005196
173	0x3dcb0a51	0.09914077
174	0xb925742b	-0.00015778902
175	0xbdccb821	-0.09996057
176	0xbdc3ee8f	-0.09566986
177	0x3e08ee78	0.13372219
178	0x3d7af92c	0.061272785
179	0xbce3fce8	-0.027830556
180	0xbd73a016	-0.05947884
181	0x3cd50fdd	0.02600854
182	0x3d8ce4dc	0.06879589
183	0x3d4cecac	0.050030395
184	0xbdb33fb3	-0.08752384
185	0x3d2b58a6	0.04183259
186	0xbe222d84	-0.15837675
187	0x3c03bfb8	0.008041315
188	0xbdb65c8d	-0.089043714
189	0xbc90266c	-0.017596446
190	0x3d8c19d2	0.06840862
191	0x3cb3d517	0.021952195
192	0x3d5591c8	0.05214098
193	0x3db10383	0.08643248
194	0xbd930c21	-0.07180048
195	0xbd30c564	-0.043156996
196	0xbd3584a8	-0.044315964
197	0x3d0790b3	0.03309698
198	0xbd8f0d78	-0.06984991
199	0xbda671ce	-0.08127175
200	0xbc924125	-0.017853329
201	0xbc2705b7	-0.010194234
202	0x3dda400b	0.106567465
203	0x3ddeedad	0.10885177
204	0x393a4ac6	0.00017766198
205	0x3c3d4b6b	0.011553626
206	0x3d6979d7	0.05700096
207	0x3d553843	0.05205561
208	0xbe187dbb	-0.14891712
209	0xbd7e5e1e	-0.062101476
210	0x3cfd0665	0.030886838
211	0x3ca6ea7a	0.020375479
212	0x3dbf25e4	0.09333399
213	0x3d09def3	0.033659887
214	0x3cc8d93a	0.024517644
215	0xbe047614	-0.12935668
216	0xbd427e8c	-0.047483966
217	0x39f58fc2	0.0004683715
218	0x3d75da92	0.060022898
219	0xbcc00224	-0.02343852
220	0x3e0ea327	0.13929425
221	0x3d53e364	0.05173053
222	0xbe0d61c7	-0.1380683
223	0x3c4f1c30	0.012640998
224	0x3d197397	0.03746375
225	0x3d974d4a	0.073877886
226	0x3d9ec018	0.07751483
227	0x3dcb3d4d	0.099238016
228	0xbca561ba	-0.020188201
229	0x3d91b8b4	0.071153075
230	0xbd05a11c	-0.03262435
231	0xbd237ad3	-0.039912056
232	0xbd14aff2	-0.036300607
233	0xbd1ec15b	-0.038758617
234	0x3c8c7c54	0.017149128
235	0xbdf4581d	-0.11930869
236	0x3dc7ecc0	0.09761953
237	0x3bd11f87	0.006381932
238	0x3c96a4e3	0.018389171
239	0xbd80c5bd	-0.062877156
240	0x3de250d9	0.11050577
241	0xbd18ad5b	-0.0372747
242	0xbca027b9	-0.019550191
243	0xbd9f2f32	-0.07772674
244	0xbdcea7fc	-0.10090634
245	0x3d4078d2	0.046990223
246	0xbd8597c9	-0.06523091
247	0x3d111deb	0.035428923
248	0x3d87ed92	0.0663711
249	0x3da17b4d	0.07884846
250	0x3dfbbe38	0.12292141
251	0xbe0211ad	-0.12702055
252	0xbdceecb8	-0.10103744
253	0xbda485f9	-0.08033366
254	0xbca08546	-0.0195948
255	0xbcd7b95a	-0.0263335

linear2.bias f4 [84]
0	0x3cce614e	0.025192883
1	0xbd2ea36e	-0.042636327
2	0x3d04ce14	0.032423094
3	0x3b8dd231	0.0043280353
4	0x3d97c66d	0.074108936
5	0xbd12a940	-0.03580594
6	0x3dd50f8b	0.10403355
7	0x3d6c47b0	0.057685554
8	0x3d16fa72	0.036859937
9	0x3cd9347b	0.026514282
10	0x3dad51ef	0.08462893
11	0xbdaa056c	-0.083018154
12	0xbd8ac5f9	-0.067760415
13	0xbdb4aa2b	-0.088215195
14	0x3d5e7268	0.054308325
15	0x3dbfd19e	0.09366153
16	0xbbc4790d	-0.0059958757
17	0x3d9821b9	0.07428307
18	0xbda75ad1	-0.08171619
19	0xbd1516f9	-0.03639886
20	0x3bdf9dc1	0.0068242257
21	0xbbdc2519	-0.0067182896
22	0x3d472175	0.04861589
23	0xbd86b36a	-0.06577189
24	0xbc5c8093	-0.013458389
25	0x3c75ac43	0.014994684
26	0xbd1b0526	-0.037846707
27	0x3d1048cd	0.03522568
28	0xbd31d8ea	-0.043419756
29	0x3ba04cbc	0.00489196
30	0xbbc8b1ab	-0.0061246953
31	0x3d9f3af9	0.0777492
32	0xbd669726	-0.05629649
33	0x3cf4ef57	0.029899282
34	0x3cb255bd	0.021769399
35	0xbd90e7fe	-0.07075499
36	0xbca6929c	-0.02033358
37	0xbd0fa0ca	-0.03506545
38	0x3d2d6eff	0.042342182
39	0xbc6decaf	-0.014521762
40	0x3c2fb13e	0.01072341
41	0xbc9b741d	-0.018976266
42	0x3d412890	0.047157824
43	0xbcf96994	-0.030445851
44	0x3db8c272	0.090214625
45	0x3ced3d8a	0.028960008
46	0xbcdb1cb2	-0.026747081
47	0x3d75b556	0.05998739
48	0xbd64bed9	-0.05584607
49	0x3d63aee9	0.05558673
50	0xbca5f01d	-0.020256096
51	0x3bebb759	0.0071934876
52	0x3d556681	0.05209971
53	0x3dad331b	0.08457013
54	0x3d8a89c8	0.06764561
55	0x3b9feff0	0.0048808977
56	0x3a23d493	0.00062496326
57	0xbd155188	-0.036454707
58	0x3d909bd5	0.070609726
59	0xbd0053d6	-0.031329952
60	0xbc623a24	-0.013807807
61	0x3da0125e	0.07816003
62	0x3dbe9475	0.0930566
63	0xbbb15175	-0.0054113218
64	0xbb75cca1	-0.0037506002
65	0xbc07c46e	-0.008286579
66	0x3d19a176	0.037507497
67	0xbb102570	-0.002199497
68	0x3da4453a	0.080210164
69	0xbc494a4a	-0.012285778
70	0x3d1bca4f	0.038034733
71	0x3ccf3c55	0.025297323
72	0x3c99edd5	0.018790165
73	0x3daae031	0.08343542
74	0x3c769a87	0.015051491
75	0x3de0bb98	0.10973281
76	0x3c829682	0.015940908
77	0x3d8d7c86	0.069085166
78	0x3ced105c	0.028938465
79	0xbcf2ecbf	-0.029653905
80	0xbda27897	-0.07933157
81	0x3bc13842	0.005896599
82	0xbd73d8d2	-0.059532948
83	0x3d69b0bb	0.05705331

linear3.weight f4 [10, 84]
0	0x3e1f8215	0.15576966
1	0xbe80dc7b	-0.25168213
2	0xbd2a6022	-0.041595586
3	0x3daebe8d	0.085324384
4	0x3e83f992	0.25776345
5	0x3e457a68	0.19284976
6	0x3d3fdfe3	0.046844374
7	0x3e6e2411	0.23255946
8	0xbd173f27	-0.03692546
9	0xbc28c2a8	-0.010300316
10	0xbc0c8ef7	-0.008579007
11	0x3bf2989c	0.0074034464
12	0xbdbf131d	-0.093298174
13	0xbd11c195	-0.035585005
14	0x3db0f7f2	0.08641042
15	0xbda67caf	-0.0812925
16	0xbe0f1cef	-0.13975881
17	0x3d8cd2cf	0.06876146
18	0x3d1e143c	0.038593516
19	0xbcd58bed	-0.026067698
20	0xbe475a16	-0.19467959
21	0x3d7032a1	0.058642033
22	0xbe2cae18	-0.16863286
23	0x3dc6b448	0.09702355
24	0x3d086fdd	0.033309806
25	0x3d1d2946	0.03836944
26	0xbc8a3c6a	-0.01687451
27	0xbdb497ef	-0.088180415
28	0xbdaad27d	-0.08340929
29	0x3dd35262	0.10318448
30	0x3d69c5b7	0.05707332
31	0xbe33c01d	-0.17553754
32	0x3d55cea6	0.05219903
33	0x3df465db	0.1193349
34	0x3dd0a76b	0.101881824
35	0xbdd6bb14	-0.10484901
36	0x3dc463dc	0.09589359
37	0x3d3a884a	0.04554013
38	0x3e9fb873	0.3119541
39	0x3cd3a0d9	0.025833534
40	0xbdb4316c	-0.08798489
41	0x3c099177	0.008396498
42	0x3db3150d	0.087442495
43	0x3dd9fb10	0.106435895
44	0xbccd3a8b	-0.02505233
45	0x3dda517a	0.10660072
46	0x3d8493d1	0.06473506
47	0x3e2f0028	0.17089903
48	0xbd90fef8	-0.070798814
49	0x3e85a558	0.2610271
50	0xbe6981fa	-0.22803488
51	0xbdc16cb5	-0.09444562
52	0xbe39dbcf	-0.18150257
53	0xbc1459cf	-0.009054615
54	0xbda3f92f	-0.080065124
55	0x3befb13c	0.007314829
56	0xbd79fe74	-0.06103368
57	0x3dfbe5ba	0.12299676
58	0xbe142a96	-0.1446937
59	0xbd3ecc92	-0.046581812
60	0xbd893224	-0.06699017
61	0xbcdb96f7	-0.026805384
62	0xbe58e7b4	-0.21182138
63	0x3be8c0e6	0.0071030734
64	0x3dad7083	0.084687255
65	0xbbb70659	-0.0055854735
66	0xbdd8067f	-0.10548114
67	0xbe25c93f	-0.1619005
68	0xbe154659	-0.14577617
69	0x3d9b917b	0.075961076
70	0xbdb89853	-0.090134285
71	0x3d4fa154	0.050690964
72	0xbe53982e	-0.2066352
73	0xbdc515a0	-0.09623265
74	0xbe4ae486	-0.19813737
75	0x3d22716b	0.039658945
76	0x3d074359	0.033023212
77	0xbe049779	-0.12948407
78	0x3e14e06d	0.14538737
79	0xbe0bb822	-0.1364446
80	0x3dc84091	0.0977794
81	0xbcdc10f4	-0.026863553
82	0x3dcdb1cb	0.10043677
83	0x3da4c85c	0.08046028
84	0xbe07479f	-0.13210915
85	0xbc89feed	-0.01684519
86	0xbcf30e54	-0.029669918
87	0x3d8b6944	0.06807187
88	0x3e040283	0.12891583
89	0xbe04aeb9	-0.12957276
90	0x3e367c91	0.17820956
91	0xbe6a69f6	-0.22891983
92	0x3dbf5516	0.09342401
93	0x3e600eac	0.21880597
94	0x3cd60595	0.026125709
95	0xbe22cb4d	-0.15897866
96	0xbde52904	-0.11189464
97	0x3cc492a7	0.02399571
98	0xbc2ee084	-0.010673646
99	0xbe72806e	-0.23681805
100	0x3d8c5cdf	0.06853651
101	0xbe5cf5c3	-0.21578126
102	0xbdbaf13b	-0.09128042
103	0xbdd5edde	-0.1044576
104	0x3a290cbf	0.00064487377
105	0x3c971c20	0.018446028
106	0xbe1900c2	-0.14941695
107	0x3bdd0b59	0.0067457375
108	0x3d52e109	0.05148414
109	0xbd9b4c53	-0.07582917
110	0x3d9c102a	0.076202706
111	0x3ddf4239	0.10901303
112	0x3d839851	0.064255364
113	0x3dc2b35e	0.09506868
114	0x3e57a7b0	0.21060061
115	0x3e163a83	0.14670758
116	0xbd0d3380	-0.034472942
117	0x3db4bfeb	0.08825668
118	0xbe34856d	-0.17629023
119	0x3e313fdc	0.17309517
120	0x3d856b4b	0.06514605
121	0x3dab50f2	0.083650485
122	0x3e484441	0.19557287
123	0xbc5f32a3	-0.013622913
124	0xbddcb434	-0.107765585
125	0xbd6adf22	-0.057341702
126	0xbc945f18	-0.01811175
127	0x3d2c450c	0.042058036
128	0x3d9bcd53	0.07607522
129	0xbdf106db	-0.11768886
130	0xbd5caffc	-0.05387877
131	0x3e4a18f9	0.19736089
132	0xbe1b856b	-0.15187614
133	0xbd9fb840	-0.07798815
134	0x3df608fa	0.12013431
135	0xbd6d55ba	-0.057943083
136	0xbe044e2a	-0.12920442
137	0xbe4b875d	-0.19875856
138	0x3dbc4b41	0.09194041
139	0xbe688f54	-0.22710925
140	0xbd11f223	-0.03563131
141	0xbd2af8b9	-0.041741107
142	0xbd4af8e8	-0.04955378
143	0xbd811afc	-0.06303975
144	0x3e80c223	0.25148115
145	0xbda380d4	-0.079835564
146	0x3e1aae11	0.15105464
147	0xbdec7e0c	-0.11547479
148	0x3da8695a	0.08223219
149	0x3e856d2e	0.2605986
150	0x3e5521fe	0.20813748
151	0xbc1eb3fd	-0.009686467
152	0x3dcab096	0.09896962
153	0xbc7b1749	-0.015325376
154	0xbd3337f9	-0.04375455
155	0x3bd2a836	0.0064287437
156	0x3d886387	0.06659608
157	0x3dad57ce	0.08464013
158	0x3e35be6b	0.1774842
159	0x3e47ae19	0.19500007
160	0xbe3e0434	-0.18556291
161	0x3b9bfbed	0.0047602565
162	0xbe507e6c	-0.20360726
163	0xbe4bf9a1	-0.19919445
164	0xbdc1867d	-0.0944948
165	0x3da3dbf9	0.08000941
166	0x3d7668a3	0.060158383
167	0x3d1f2d2a	0.03886143
168	0x3d537163	0.051621806
169	0xbe996fbf	-0.29968068
170	0xbe91442f	-0.28372332
171	0xbc18380b	-0.009290705
172	0x3dab8fcd	0.08377037
173	0x3e156d35	0.1459244
174	0x3d578814	0.05262001
175	0x3e236dcc	0.15959853
176	0xbdf0bf14	-0.11755195
177	0x3e7b7da4	0.24559647
178	0xbdf033cf	-0.11728632
179	0xbcdf11e2	-0.027230207
180	0x3e078039	0.13232507
181	0xbc3746b0	-0.011186287
182	0x3e75054a	0.23927799
183	0x3d9db124	0.076998025
184	0xbe1e0202	-0.15430453
185	0xbe807706	-0.25090808
186	0x3e25b2db	0.16181509
187	0x3e17cbfe	0.1482391
188	0x3d7a9ee2	0.06118668
189	0xbde1176c	-0.109907955
190	0x3e0ce446	0.13758954
191	0xbd35ebd6	-0.044414364
192	0x3defb274	0.11703959
193	0x3e05de81	0.1307316
194	0x3df0c470	0.117562175
195	0x3d0daa1c	0.034586057
196	0x3c189cba	0.00931471
197	0xbd8b29ca	-0.0679508
198	0xbb7c96d3	-0.0038542047
199	0xbd03982f	-0.032127555
200	0xbe4d17ef	-0.20028661
201	0xbe069adf	-0.13145016
202	0x3d8545bc	0.065074414
203	0x3dae77cb	0.085189424
204	0x3dbf4c18	0.093406856
205	0x3da8793a	0.08226247
206	0xbe57bbf4	-0.21067792
207	0x3e1c09f8	0.15238178
208	0xbd0e4d37	-0.034741607
209	0xbe3f9db3	-0.18712501
210	0xbdd0d3fd	-0.101966836
211	0x3d0bb7ba	0.034110762
212	0xbd30b049	-0.04313687
213	0xbdda81e9	-0.1066931
214	0xbdcc41f0	-0.09973514
215	0x3e883412	0.26602226
216	0x3dd3a44d	0.10334072
217	0x3e2abe71	0.1667421
218	0xbe6a3d28	-0.22874892
219	0x3d1fe013	0.039032053
220	0x3cd3e034	0.025863744
221	0xbd1289a8	-0.03577581
222	0xbe335483	-0.17512707
223	0xbdd5c119	-0.10437221
224	0x3dd25c66	0.1027153
225	0x3dc96e5a	0.09835501
226	0x3b82df19	0.0039938805
227	0x3ddaf6fd	0.106916405
228	0x3c672be4	0.014109585
229	0x3c258540	0.01010257
230	0xbdead511	-0.114664204
231	0xbd0886da	-0.03333173
232	0x3d92a46f	0.071602695
233	0xbdd54a48	-0.10414559
234	0xbda78709	-0.08180053
235	0x3e58e7e7	0.21182214
236	0xbe91c4ac	-0.2847036
237	0xbd2cc58a	-0.042180575
238	0xbd56ea48	-0.05246952
239	0x3d905916	0.07048242
240	0x3d05de89	0.03268293
241	0x3df9ed05	0.12203411
242	0x3d9fa84f	0.07795774
243	0xbe17564d	-0.14779015
244	0x3d6fe14a	0.05856446
245	0x3db5893c	0.08864066
246	0xbdf3da0e	-0.11906825
247	0x3e7cf44f	0.24702571
248	0xbdac7ed2	-0.084226266
249	0x3e74410e	0.23852941
250	0x3d975c7f	0.07390689
251	0xbe5c25d6	-0.21498808
252	0x3e865e53	0.2624384
253	0x3d51d815	0.051231463
254	0xbda66ebc	-0.0812659
255	0x3ccde4e4	0.025133558

linear3.bias f4 [10]
0	0x3d989b6f	0.074515216
1	0x3d1930b1	0.03739995
2	0xbd9a120f	-0.07522976
3	0x3c0aef63	0.008479926
4	0x3c685b6b	0.014181952
5	0x3d97d8b6	0.07414381
6	0x3cfaf363	0.030633634
7	0x3d267d98	0.04064712
8	0xbd013830	-0.031547725
9	0x3b225691	0.0024770836
